…
  name: "data"
  type: "WindowData"
  top: "data"
  top: "label_gather"
  include {
    phase: TRAIN
  }
  transform_param {
    mirror: true
    crop_size: 224
    mean_value: 104
    mean_value: 117
    mean_value: 123
  }
  window_data_param {
    source: "/home/hongyang/research_office/project/cvpr16/finetune/output/old/cls_1k_ft.txt"
    batch_size: 64
    fg_threshold: 0.500001
    bg_threshold: 0.500001
    fg_fraction: 0.25
    context_pad: 16
    crop_mode: "warp"
    root_folder: "/home/hongyang/ImageNet_data_1/cls_original_image/train"
  }
}
layer {
  name: "conv1_1"
  type: "Convolution"
  bottom: "data"
  top: "conv1_1"
  param {
    lr_mult: 0
    decay_mult: 1
  }
  param {
    lr_mult: 0
    decay_mult: 0
  }
  convolution_param {
    num_output: 64
    pad: 1
    kernel_size: 3
    weight_filler {
      type: "gaussian"
      std: 0.059
    }
    bias_filler {
      type: "constant"
      value: 0
    }
  }
}
layer {
  name: "relu1_1"
  type: "ReLU"
  bottom: "conv1_1"
  top: "conv1_1"
}
layer {
  name: "conv1_2"
  type: "Convolution"
  bottom: "conv1_1"
  top: "conv1_2"
  param {
    lr_mult: 0
    decay_mult: 1
  }
  param {
    lr_mult: 0
    decay_mult: 0
  }
  convolution_param {
    num_output: 64
    pad: 1
    kernel_size: 3
    weight_filler {
      type: "gaussian"
      std: 0.059
    }
    bias_filler {
      type: "constant"
      value: 0
    }
  }
}
layer {
  name: "relu1_2"
  type: "ReLU"
  bottom: "conv1_2"
  top: "conv1_2"
}
layer {
  name: "pool1"
  type: "Pooling"
  bottom: "conv1_2"
  top: "pool1"
  pooling_param {
    pool: MAX
    kernel_size: 2
    stride: 2
  }
}
layer {
  name: "conv2_1"
  type: "Convolution"
  bottom: "pool1"
  top: "conv2_1"
  param {
    lr_mult: 0
    decay_mult: 1
  }
  param {
    lr_mult: 0
    decay_mult: 0
  }
  convolution_param {
    num_output: 128
    pad: 1
    kernel_size: 3
    weight_filler {
      type: "gaussian"
      std: 0.042
    }
    bias_filler {
      type: "constant"
      value: 0
    }
  }
}
layer {
  name: "relu2_1"
  type: "ReLU"
  bottom: "conv2_1"
  top: "conv2_1"
}
layer {
  name: "conv2_2"
  type: "Convolution"
  bottom: "conv2_1"
  top: "conv2_2"
  param {
    lr_mult: 0
    decay_mult: 1
  }
  param {
    lr_mult: 0
    decay_mult: 0
  }
  convolution_param {
    num_output: 128
    pad: 1
    kernel_size: 3
    weight_filler {
      type: "gaussian"
      std: 0.042
    }
    bias_filler {
      type: "constant"
      value: 0
    }
  }
}
layer {
  name: "relu2_2"
  type: "ReLU"
  bottom: "conv2_2"
  top: "conv2_2"
}
layer {
  name: "pool2"
  type: "Pooling"
  bottom: "conv2_2"
  top: "pool2"
  pooling_param {
    pool: MAX
    kernel_size: 2
    stride: 2
  }
}
layer {
  name: "conv3_1"
  type: "Convolution"
  bottom: "pool2"
  top: "conv3_1"
  param {
    lr_mult: 0
    decay_mult: 1
  }
  param {
    lr_mult: 0
    decay_mult: 0
  }
  convolution_param {
    num_output: 256
    pad: 1
    kernel_size: 3
    weight_filler {
      type: "gaussian"
      std: 0.029
    }
    bias_filler {
      type: "constant"
      value: 0
    }
  }
}
layer {
  name: "relu3_1"
  type: "ReLU"
  bottom: "conv3_1"
  top: "conv3_1"
}
layer {
  name: "conv3_2"
  type: "Convolution"
  bottom: "conv3_1"
  top: "conv3_2"
  param {
    lr_mult: 0
    decay_mult: 1
  }
  param {
    lr_mult: 0
    decay_mult: 0
  }
  convolution_param {
    num_output: 256
    pad: 1
    kernel_size: 3
    weight_filler {
      type: "gaussian"
      std: 0.029
    }
    bias_filler {
      type: "constant"
      value: 0
    }
  }
}
layer {
  name: "relu3_2"
  type: "ReLU"
  bottom: "conv3_2"
  top: "conv3_2"
}
layer {
  name: "conv3_3"
  type: "Convolution"
  bottom: "conv3_2"
  top: "conv3_3"
  param {
    lr_mult: 0
    decay_mult: 1
  }
  param {
    lr_mult: 0
    decay_mult: 0
  }
  convolution_param {
    num_output: 256
    pad: 1
    kernel_size: 3
    weight_filler {
      type: "gaussian"
      std: 0.029
    }
    bias_filler {
      type: "constant"
      value: 0
    }
  }
}
layer {
  name: "relu3_3"
  type: "ReLU"
  bottom: "conv3_3"
  top: "conv3_3"
}
layer {
  name: "conv3_4"
  type: "Convolution"
  bottom: "conv3_3"
  top: "conv3_4"
  param {
    lr_mult: 0
    decay_mult: 1
  }
  param {
    lr_mult: 0
    decay_mult: 0
  }
  convolution_param {
    num_output: 256
    pad: 1
    kernel_size: 3
    weight_filler {
      type: "gaussian"
      std: 0.029
    }
    bias_filler {
      type: "constant"
      value: 0
    }
  }
}
layer {
  name: "relu3_4"
  type: "ReLU"
  bottom: "conv3_4"
  top: "conv3_4"
}
layer {
  name: "pool3"
  type: "Pooling"
  bottom: "conv3_4"
  top: "pool3"
  pooling_param {
    pool: MAX
    kernel_size: 2
    stride: 2
  }
}
layer {
  name: "conv4_1"
  type: "Convolution"
  bottom: "pool3"
  top: "conv4_1"
  param {
    lr_mult: 0
    decay_mult: 1
  }
  param {
    lr_mult: 0
    decay_mult: 0
  }
  convolution_param {
    num_output: 512
    pad: 1
    kernel_size: 3
    weight_filler {
      type: "gaussian"
      std: 0.021
    }
    bias_filler {
      type: "constant"
      value: 0
    }
  }
}
layer {
  name: "relu4_1"
  type: "ReLU"
  bottom: "conv4_1"
  top: "conv4_1"
}
layer {
  name: "conv4_2"
  type: "Convolution"
  bottom: "conv4_1"
  top: "conv4_2"
  param {
    lr_mult: 0
    decay_mult: 1
  }
  param {
    lr_mult: 0
    decay_mult: 0
  }
  convolution_param {
    num_output: 512
    pad: 1
    kernel_size: 3
    weight_filler {
      type: "gaussian"
      std: 0.021
    }
    bias_filler {
      type: "constant"
      value: 0
    }
  }
}
layer {
  name: "relu4_2"
  type: "ReLU"
  bottom: "conv4_2"
  top: "conv4_2"
}
layer {
  name: "conv4_3"
  type: "Convolution"
  bottom: "conv4_2"
  top: "conv4_3"
  param {
    lr_mult: 0
    decay_mult: 1
  }
  param {
    lr_mult: 0
    decay_mult: 0
  }
  convolution_param {
    num_output: 512
    pad: 1
    kernel_size: 3
    weight_filler {
      type: "gaussian"
      std: 0.021
    }
    bias_filler {
      type: "constant"
      value: 0
    }
  }
}
layer {
  name: "relu4_3"
  type: "ReLU"
  bottom: "conv4_3"
  top: "conv4_3"
}
layer {
  name: "conv4_4"
  type: "Convolution"
  bottom: "conv4_3"
  top: "conv4_4"
  param {
    lr_mult: 0
    decay_mult: 1
  }
  param {
    lr_mult: 0
    decay_mult: 0
  }
  convolution_param {
    num_output: 512
    pad: 1
    kernel_size: 3
    weight_filler {
      type: "gaussian"
      std: 0.021
    }
    bias_filler {
      type: "constant"
      value: 0
    }
  }
}
layer {
  name: "relu4_4"
  type: "ReLU"
  bottom: "conv4_4"
  top: "conv4_4"
}
layer {
  name: "pool4"
  type: "Pooling"
  bottom: "conv4_4"
  top: "pool4"
  pooling_param {
    pool: MAX
    kernel_size: 2
    stride: 2
  }
}
layer {
  name: "conv5_1"
  type: "Convolution"
  bottom: "pool4"
  top: "conv5_1"
  param {
    lr_mult: 0
    decay_mult: 1
  }
  param {
    lr_mult: 0
    decay_mult: 0
  }
  convolution_param {
    num_output: 512
    pad: 1
    kernel_size: 3
    weight_filler {
      type: "gaussian"
      std: 0.021
    }
    bias_filler {
      type: "constant"
      value: 0
    }
  }
}
layer {
  name: "relu5_1"
  type: "ReLU"
  bottom: "conv5_1"
  top: "conv5_1"
}
layer {
  name: "conv5_2"
  type: "Convolution"
  bottom: "conv5_1"
  top: "conv5_2"
  param {
    lr_mult: 0
    decay_mult: 1
  }
  param {
    lr_mult: 0
    decay_mult: 0
  }
  convolution_param {
    num_output: 512
    pad: 1
    kernel_size: 3
    weight_filler {
      type: "gaussian"
      std: 0.021
    }
    bias_filler {
      type: "constant"
      value: 0
    }
  }
}
layer {
  name: "relu5_2"
  type: "ReLU"
  bottom: "conv5_2"
  top: "conv5_2"
}
layer {
  name: "conv5_3"
  type: "Convolution"
  bottom: "conv5_2"
  top: "conv5_3"
  param {
    lr_mult: 0
    decay_mult: 1
  }
  param {
    lr_mult: 0
    decay_mult: 0
  }
  convolution_param {
    num_output: 512
    pad: 1
    kernel_size: 3
    weight_filler {
      type: "gaussian"
      std: 0.021
    }
    bias_filler {
      type: "constant"
      value: 0
    }
  }
}
layer {
  name: "relu5_3"
  type: "ReLU"
  bottom: "conv5_3"
  top: "conv5_3"
}
layer {
  name: "conv5_4"
  type: "Convolution"
  bottom: "conv5_3"
  top: "conv5_4"
  param {
    lr_mult: 0
    decay_mult: 1
  }
  param {
    lr_mult: 0
    decay_mult: 0
  }
  convolution_param {
    num_output: 512
    pad: 1
    kernel_size: 3
    weight_filler {
      type: "gaussian"
      std: 0.021
    }
    bias_filler {
      type: "constant"
      value: 0
    }
  }
}
layer {
  name: "relu5_4"
  type: "ReLU"
  bottom: "conv5_4"
  top: "conv5_4"
}
layer {
  name: "pool5_spm5"
  type: "Pooling"
  bottom: "conv5_4"
  top: "pool5_spm5"
  pooling_param {
    pool: MAX
    kernel_size: 7
    stride: 7
  }
}
layer {
  name: "pool5_spm5_flatten"
  type: "Flatten"
  bottom: "pool5_spm5"
  top: "pool5_spm5_flatten"
}
layer {
  name: "pool5_spm3"
  type: "Pooling"
  bottom: "conv5_4"
  top: "pool5_spm3"
  pooling_param {
    pool: MAX
    kernel_size: 3
    stride: 3
  }
}
layer {
  name: "pool5_spm3_flatten"
  type: "Flatten"
  bottom: "pool5_spm3"
  top: "pool5_spm3_flatten"
}
layer {
  name: "pool5_spm2"
  type: "Pooling"
  bottom: "conv5_4"
  top: "pool5_spm2"
  pooling_param {
    pool: MAX
    kernel_size: 5
    stride: 5
  }
}
layer {
  name: "pool5_spm2_flatten"
  type: "Flatten"
  bottom: "pool5_spm2"
  top: "pool5_spm2_flatten"
}
layer {
  name: "pool5_spm1"
  type: "Pooling"
  bottom: "conv5_4"
  top: "pool5_spm1"
  pooling_param {
    pool: MAX
    kernel_size: 14
    stride: 14
  }
}
layer {
  name: "pool5_spm1_flatten"
  type: "Flatten"
  bottom: "pool5_spm1"
  top: "pool5_spm1_flatten"
}
layer {
  name: "pool5_spm"
  type: "Concat"
  bottom: "pool5_spm1_flatten"
  bottom: "pool5_spm2_flatten"
  bottom: "pool5_spm3_flatten"
  bottom: "pool5_spm5_flatten"
  top: "pool5_spm"
  concat_param {
    concat_dim: 1
  }
}
layer {
  name: "pool5_gather"
  type: "Gather"
  bottom: "pool5_spm"
  bottom: "label_gather"
  top: "pool5_spm_gather"
  top: "label"
}
layer {
  name: "fc6-spp"
  type: "InnerProduct"
  bottom: "pool5_spm_gather"
  top: "fc6"
  param {
    lr_mult: 0
    decay_mult: 1
  }
  param {
    lr_mult: 0
    decay_mult: 0
  }
  inner_product_param {
    num_output: 4096
    weight_filler {
      type: "gaussian"
      std: 0.01
    }
    bias_filler {
      type: "constant"
      value: 0
    }
  }
}
layer {
  name: "relu6"
  type: "ReLU"
  bottom: "fc6"
  top: "fc6"
}
layer {
  name: "drop6"
  type: "Dropout"
  bottom: "fc6"
  top: "fc6"
  dropout_param {
    dropout_ratio: 0.5
  }
}
layer {
  name: "fc7-spp"
  type: "InnerProduct"
  bottom: "fc6"
  top: "fc7"
  param {
    lr_mult: 0
    decay_mult: 1
  }
  param {
    lr_mult: 0
    decay_mult: 0
  }
  inner_product_param {
    num_output: 4096
    weight_filler {
      type: "gaussian"
      std: 0.01
    }
    bias_filler {
      type: "constant"
      value: 0
    }
  }
}
layer {
  name: "relu7"
  type: "ReLU"
  bottom: "fc7"
  top: "fc7"
}
layer {
  name: "drop7"
  type: "Dropout"
  bottom: "fc7"
  top: "fc7"
  dropout_param {
    dropout_ratio: 0.5
  }
}
layer {
  name: "fc8-spp_ft"
  type: "InnerProduct"
  bottom: "fc7"
  top: "fc8_ft"
  param {
    lr_mult: 1
    decay_mult: 1
  }
  param {
    lr_mult: 0
    decay_mult: 0
  }
  inner_product_param {
    num_output: 1001
    weight_filler {
      type: "gaussian"
      std: 0.001
    }
    bias_filler {
      type: "constant"
      value: 0
    }
  }
}
layer {
  name: "loss"
  type: "HingeLoss4Det"
  bottom: "fc8_ft"
  bottom: "label"
  top: "loss"
  loss_weight: 1
}
I1106 22:51:23.581775  6103 layer_factory.hpp:74] Creating layer data
I1106 22:51:23.581792  6103 net.cpp:94] Creating Layer data
I1106 22:51:23.581802  6103 net.cpp:413] data -> data
I1106 22:51:23.581827  6103 net.cpp:413] data -> label_gather
I1106 22:51:23.581836  6103 net.cpp:158] Setting up data
I1106 22:51:23.582150  6103 window_data_layer.cpp:51] Window data layer:
…
I1106 22:53:40.569545  6103 window_data_layer.cpp:168] class 997 has 54083 samples
I1106 22:53:40.569550  6103 window_data_layer.cpp:168] class 998 has 47502 samples
I1106 22:53:40.569555  6103 window_data_layer.cpp:168] class 999 has 23497 samples
I1106 22:53:40.569561  6103 window_data_layer.cpp:168] class 1000 has 21865 samples
I1106 22:53:40.569566  6103 window_data_layer.cpp:172] Amount of context padding: 16
I1106 22:53:40.569573  6103 window_data_layer.cpp:175] Crop mode: warp
I1106 22:53:40.569593  6103 window_data_layer.cpp:185] output data size: 64,3,224,224
I1106 22:53:40.574237  6103 net.cpp:165] Top shape: 64 3 224 224 (9633792)
I1106 22:53:40.574267  6103 net.cpp:165] Top shape: 64 (64)
I1106 22:53:40.574280  6103 layer_factory.hpp:74] Creating layer conv1_1
I1106 22:53:40.574304  6103 net.cpp:94] Creating Layer conv1_1
I1106 22:53:40.574311  6103 net.cpp:457] conv1_1 <- data
I1106 22:53:40.574323  6103 net.cpp:125] This layer is inheriting previous layer's sync mode: 1
I1106 22:53:40.574334  6103 net.cpp:413] conv1_1 -> conv1_1
I1106 22:53:40.574350  6103 net.cpp:158] Setting up conv1_1
I1106 22:53:41.030580  6103 net.cpp:165] Top shape: 64 64 224 224 (205520896)
I1106 22:53:41.030606  6103 layer_factory.hpp:74] Creating layer relu1_1
I1106 22:53:41.030618  6103 net.cpp:94] Creating Layer relu1_1
I1106 22:53:41.030623  6103 net.cpp:457] relu1_1 <- conv1_1
I1106 22:53:41.030629  6103 net.cpp:125] This layer is inheriting previous layer's sync mode: 1
I1106 22:53:41.030633  6103 net.cpp:402] relu1_1 -> conv1_1 (in-place)
I1106 22:53:41.030639  6103 net.cpp:158] Setting up relu1_1
I1106 22:53:41.030827  6103 net.cpp:165] Top shape: 64 64 224 224 (205520896)
I1106 22:53:41.030836  6103 layer_factory.hpp:74] Creating layer conv1_2
I1106 22:53:41.030845  6103 net.cpp:94] Creating Layer conv1_2
I1106 22:53:41.030848  6103 net.cpp:457] conv1_2 <- conv1_1
I1106 22:53:41.030853  6103 net.cpp:125] This layer is inheriting previous layer's sync mode: 1
I1106 22:53:41.030856  6103 net.cpp:413] conv1_2 -> conv1_2
I1106 22:53:41.030864  6103 net.cpp:158] Setting up conv1_2
I1106 22:53:41.032074  6103 net.cpp:165] Top shape: 64 64 224 224 (205520896)
I1106 22:53:41.032088  6103 layer_factory.hpp:74] Creating layer relu1_2
I1106 22:53:41.032096  6103 net.cpp:94] Creating Layer relu1_2
I1106 22:53:41.032099  6103 net.cpp:457] relu1_2 <- conv1_2
I1106 22:53:41.032104  6103 net.cpp:125] This layer is inheriting previous layer's sync mode: 1
I1106 22:53:41.032107  6103 net.cpp:402] relu1_2 -> conv1_2 (in-place)
I1106 22:53:41.032112  6103 net.cpp:158] Setting up relu1_2
I1106 22:53:41.032305  6103 net.cpp:165] Top shape: 64 64 224 224 (205520896)
I1106 22:53:41.032313  6103 layer_factory.hpp:74] Creating layer pool1
I1106 22:53:41.032323  6103 net.cpp:94] Creating Layer pool1
I1106 22:53:41.032326  6103 net.cpp:457] pool1 <- conv1_2
I1106 22:53:41.032347  6103 net.cpp:125] This layer is inheriting previous layer's sync mode: 1
I1106 22:53:41.032354  6103 net.cpp:413] pool1 -> pool1
I1106 22:53:41.032361  6103 net.cpp:158] Setting up pool1
I1106 22:53:41.032483  6103 net.cpp:165] Top shape: 64 64 112 112 (51380224)
I1106 22:53:41.032490  6103 layer_factory.hpp:74] Creating layer conv2_1
I1106 22:53:41.032497  6103 net.cpp:94] Creating Layer conv2_1
I1106 22:53:41.032500  6103 net.cpp:457] conv2_1 <- pool1
I1106 22:53:41.032505  6103 net.cpp:125] This layer is inheriting previous layer's sync mode: 1
I1106 22:53:41.032510  6103 net.cpp:413] conv2_1 -> conv2_1
I1106 22:53:41.032516  6103 net.cpp:158] Setting up conv2_1
I1106 22:53:41.034517  6103 net.cpp:165] Top shape: 64 128 112 112 (102760448)
I1106 22:53:41.034529  6103 layer_factory.hpp:74] Creating layer relu2_1
I1106 22:53:41.034535  6103 net.cpp:94] Creating Layer relu2_1
I1106 22:53:41.034538  6103 net.cpp:457] relu2_1 <- conv2_1
I1106 22:53:41.034543  6103 net.cpp:125] This layer is inheriting previous layer's sync mode: 1
I1106 22:53:41.034548  6103 net.cpp:402] relu2_1 -> conv2_1 (in-place)
I1106 22:53:41.034553  6103 net.cpp:158] Setting up relu2_1
I1106 22:53:41.034744  6103 net.cpp:165] Top shape: 64 128 112 112 (102760448)
I1106 22:53:41.034752  6103 layer_factory.hpp:74] Creating layer conv2_2
I1106 22:53:41.034761  6103 net.cpp:94] Creating Layer conv2_2
I1106 22:53:41.034765  6103 net.cpp:457] conv2_2 <- conv2_1
I1106 22:53:41.034768  6103 net.cpp:125] This layer is inheriting previous layer's sync mode: 1
I1106 22:53:41.034773  6103 net.cpp:413] conv2_2 -> conv2_2
I1106 22:53:41.034780  6103 net.cpp:158] Setting up conv2_2
I1106 22:53:41.038226  6103 net.cpp:165] Top shape: 64 128 112 112 (102760448)
I1106 22:53:41.038238  6103 layer_factory.hpp:74] Creating layer relu2_2
I1106 22:53:41.038244  6103 net.cpp:94] Creating Layer relu2_2
I1106 22:53:41.038247  6103 net.cpp:457] relu2_2 <- conv2_2
I1106 22:53:41.038251  6103 net.cpp:125] This layer is inheriting previous layer's sync mode: 1
I1106 22:53:41.038255  6103 net.cpp:402] relu2_2 -> conv2_2 (in-place)
I1106 22:53:41.038259  6103 net.cpp:158] Setting up relu2_2
I1106 22:53:41.038368  6103 net.cpp:165] Top shape: 64 128 112 112 (102760448)
I1106 22:53:41.038375  6103 layer_factory.hpp:74] Creating layer pool2
I1106 22:53:41.038382  6103 net.cpp:94] Creating Layer pool2
I1106 22:53:41.038384  6103 net.cpp:457] pool2 <- conv2_2
I1106 22:53:41.038388  6103 net.cpp:125] This layer is inheriting previous layer's sync mode: 1
I1106 22:53:41.038393  6103 net.cpp:413] pool2 -> pool2
I1106 22:53:41.038396  6103 net.cpp:158] Setting up pool2
I1106 22:53:41.038589  6103 net.cpp:165] Top shape: 64 128 56 56 (25690112)
I1106 22:53:41.038597  6103 layer_factory.hpp:74] Creating layer conv3_1
I1106 22:53:41.038605  6103 net.cpp:94] Creating Layer conv3_1
I1106 22:53:41.038609  6103 net.cpp:457] conv3_1 <- pool2
I1106 22:53:41.038612  6103 net.cpp:125] This layer is inheriting previous layer's sync mode: 1
I1106 22:53:41.038617  6103 net.cpp:413] conv3_1 -> conv3_1
I1106 22:53:41.038625  6103 net.cpp:158] Setting up conv3_1
I1106 22:53:41.044920  6103 net.cpp:165] Top shape: 64 256 56 56 (51380224)
I1106 22:53:41.044932  6103 layer_factory.hpp:74] Creating layer relu3_1
I1106 22:53:41.044939  6103 net.cpp:94] Creating Layer relu3_1
I1106 22:53:41.044944  6103 net.cpp:457] relu3_1 <- conv3_1
I1106 22:53:41.044947  6103 net.cpp:125] This layer is inheriting previous layer's sync mode: 1
I1106 22:53:41.044950  6103 net.cpp:402] relu3_1 -> conv3_1 (in-place)
I1106 22:53:41.044955  6103 net.cpp:158] Setting up relu3_1
I1106 22:53:41.045146  6103 net.cpp:165] Top shape: 64 256 56 56 (51380224)
I1106 22:53:41.045156  6103 layer_factory.hpp:74] Creating layer conv3_2
I1106 22:53:41.045164  6103 net.cpp:94] Creating Layer conv3_2
I1106 22:53:41.045167  6103 net.cpp:457] conv3_2 <- conv3_1
I1106 22:53:41.045171  6103 net.cpp:125] This layer is inheriting previous layer's sync mode: 1
I1106 22:53:41.045176  6103 net.cpp:413] conv3_2 -> conv3_2
I1106 22:53:41.045192  6103 net.cpp:158] Setting up conv3_2
I1106 22:53:41.057667  6103 net.cpp:165] Top shape: 64 256 56 56 (51380224)
I1106 22:53:41.057682  6103 layer_factory.hpp:74] Creating layer relu3_2
I1106 22:53:41.057687  6103 net.cpp:94] Creating Layer relu3_2
I1106 22:53:41.057692  6103 net.cpp:457] relu3_2 <- conv3_2
I1106 22:53:41.057695  6103 net.cpp:125] This layer is inheriting previous layer's sync mode: 1
I1106 22:53:41.057699  6103 net.cpp:402] relu3_2 -> conv3_2 (in-place)
I1106 22:53:41.057704  6103 net.cpp:158] Setting up relu3_2
I1106 22:53:41.057816  6103 net.cpp:165] Top shape: 64 256 56 56 (51380224)
I1106 22:53:41.057824  6103 layer_factory.hpp:74] Creating layer conv3_3
I1106 22:53:41.057832  6103 net.cpp:94] Creating Layer conv3_3
I1106 22:53:41.057835  6103 net.cpp:457] conv3_3 <- conv3_2
I1106 22:53:41.057838  6103 net.cpp:125] This layer is inheriting previous layer's sync mode: 1
I1106 22:53:41.057843  6103 net.cpp:413] conv3_3 -> conv3_3
I1106 22:53:41.057848  6103 net.cpp:158] Setting up conv3_3
I1106 22:53:41.070127  6103 net.cpp:165] Top shape: 64 256 56 56 (51380224)
I1106 22:53:41.070147  6103 layer_factory.hpp:74] Creating layer relu3_3
I1106 22:53:41.070161  6103 net.cpp:94] Creating Layer relu3_3
I1106 22:53:41.070168  6103 net.cpp:457] relu3_3 <- conv3_3
I1106 22:53:41.070173  6103 net.cpp:125] This layer is inheriting previous layer's sync mode: 1
I1106 22:53:41.070179  6103 net.cpp:402] relu3_3 -> conv3_3 (in-place)
I1106 22:53:41.070186  6103 net.cpp:158] Setting up relu3_3
I1106 22:53:41.070461  6103 net.cpp:165] Top shape: 64 256 56 56 (51380224)
I1106 22:53:41.070475  6103 layer_factory.hpp:74] Creating layer conv3_4
I1106 22:53:41.070492  6103 net.cpp:94] Creating Layer conv3_4
I1106 22:53:41.070498  6103 net.cpp:457] conv3_4 <- conv3_3
I1106 22:53:41.070507  6103 net.cpp:125] This layer is inheriting previous layer's sync mode: 1
I1106 22:53:41.070514  6103 net.cpp:413] conv3_4 -> conv3_4
I1106 22:53:41.070525  6103 net.cpp:158] Setting up conv3_4
I1106 22:53:41.083616  6103 net.cpp:165] Top shape: 64 256 56 56 (51380224)
I1106 22:53:41.083631  6103 layer_factory.hpp:74] Creating layer relu3_4
I1106 22:53:41.083638  6103 net.cpp:94] Creating Layer relu3_4
I1106 22:53:41.083642  6103 net.cpp:457] relu3_4 <- conv3_4
I1106 22:53:41.083647  6103 net.cpp:125] This layer is inheriting previous layer's sync mode: 1
I1106 22:53:41.083652  6103 net.cpp:402] relu3_4 -> conv3_4 (in-place)
I1106 22:53:41.083658  6103 net.cpp:158] Setting up relu3_4
I1106 22:53:41.083858  6103 net.cpp:165] Top shape: 64 256 56 56 (51380224)
I1106 22:53:41.083866  6103 layer_factory.hpp:74] Creating layer pool3
I1106 22:53:41.083873  6103 net.cpp:94] Creating Layer pool3
I1106 22:53:41.083876  6103 net.cpp:457] pool3 <- conv3_4
I1106 22:53:41.083880  6103 net.cpp:125] This layer is inheriting previous layer's sync mode: 1
I1106 22:53:41.083884  6103 net.cpp:413] pool3 -> pool3
I1106 22:53:41.083889  6103 net.cpp:158] Setting up pool3
I1106 22:53:41.084005  6103 net.cpp:165] Top shape: 64 256 28 28 (12845056)
I1106 22:53:41.084012  6103 layer_factory.hpp:74] Creating layer conv4_1
I1106 22:53:41.084019  6103 net.cpp:94] Creating Layer conv4_1
I1106 22:53:41.084023  6103 net.cpp:457] conv4_1 <- pool3
I1106 22:53:41.084027  6103 net.cpp:125] This layer is inheriting previous layer's sync mode: 1
I1106 22:53:41.084031  6103 net.cpp:413] conv4_1 -> conv4_1
I1106 22:53:41.084038  6103 net.cpp:158] Setting up conv4_1
I1106 22:53:41.108041  6103 net.cpp:165] Top shape: 64 512 28 28 (25690112)
I1106 22:53:41.108065  6103 layer_factory.hpp:74] Creating layer relu4_1
I1106 22:53:41.108074  6103 net.cpp:94] Creating Layer relu4_1
I1106 22:53:41.108078  6103 net.cpp:457] relu4_1 <- conv4_1
I1106 22:53:41.108083  6103 net.cpp:125] This layer is inheriting previous layer's sync mode: 1
I1106 22:53:41.108088  6103 net.cpp:402] relu4_1 -> conv4_1 (in-place)
I1106 22:53:41.108093  6103 net.cpp:158] Setting up relu4_1
I1106 22:53:41.108290  6103 net.cpp:165] Top shape: 64 512 28 28 (25690112)
I1106 22:53:41.108299  6103 layer_factory.hpp:74] Creating layer conv4_2
I1106 22:53:41.108319  6103 net.cpp:94] Creating Layer conv4_2
I1106 22:53:41.108322  6103 net.cpp:457] conv4_2 <- conv4_1
I1106 22:53:41.108326  6103 net.cpp:125] This layer is inheriting previous layer's sync mode: 1
I1106 22:53:41.108332  6103 net.cpp:413] conv4_2 -> conv4_2
I1106 22:53:41.108338  6103 net.cpp:158] Setting up conv4_2
I1106 22:53:41.157107  6103 net.cpp:165] Top shape: 64 512 28 28 (25690112)
I1106 22:53:41.157130  6103 layer_factory.hpp:74] Creating layer relu4_2
I1106 22:53:41.157140  6103 net.cpp:94] Creating Layer relu4_2
I1106 22:53:41.157145  6103 net.cpp:457] relu4_2 <- conv4_2
I1106 22:53:41.157150  6103 net.cpp:125] This layer is inheriting previous layer's sync mode: 1
I1106 22:53:41.157155  6103 net.cpp:402] relu4_2 -> conv4_2 (in-place)
I1106 22:53:41.157161  6103 net.cpp:158] Setting up relu4_2
I1106 22:53:41.157290  6103 net.cpp:165] Top shape: 64 512 28 28 (25690112)
I1106 22:53:41.157299  6103 layer_factory.hpp:74] Creating layer conv4_3
I1106 22:53:41.157306  6103 net.cpp:94] Creating Layer conv4_3
I1106 22:53:41.157310  6103 net.cpp:457] conv4_3 <- conv4_2
I1106 22:53:41.157317  6103 net.cpp:125] This layer is inheriting previous layer's sync mode: 1
I1106 22:53:41.157326  6103 net.cpp:413] conv4_3 -> conv4_3
I1106 22:53:41.157336  6103 net.cpp:158] Setting up conv4_3
I1106 22:53:41.205816  6103 net.cpp:165] Top shape: 64 512 28 28 (25690112)
I1106 22:53:41.205837  6103 layer_factory.hpp:74] Creating layer relu4_3
I1106 22:53:41.205847  6103 net.cpp:94] Creating Layer relu4_3
I1106 22:53:41.205852  6103 net.cpp:457] relu4_3 <- conv4_3
I1106 22:53:41.205857  6103 net.cpp:125] This layer is inheriting previous layer's sync mode: 1
I1106 22:53:41.205862  6103 net.cpp:402] relu4_3 -> conv4_3 (in-place)
I1106 22:53:41.205868  6103 net.cpp:158] Setting up relu4_3
I1106 22:53:41.205982  6103 net.cpp:165] Top shape: 64 512 28 28 (25690112)
I1106 22:53:41.205989  6103 layer_factory.hpp:74] Creating layer conv4_4
I1106 22:53:41.205996  6103 net.cpp:94] Creating Layer conv4_4
I1106 22:53:41.206001  6103 net.cpp:457] conv4_4 <- conv4_3
I1106 22:53:41.206004  6103 net.cpp:125] This layer is inheriting previous layer's sync mode: 1
I1106 22:53:41.206009  6103 net.cpp:413] conv4_4 -> conv4_4
I1106 22:53:41.206018  6103 net.cpp:158] Setting up conv4_4
I1106 22:53:41.254266  6103 net.cpp:165] Top shape: 64 512 28 28 (25690112)
I1106 22:53:41.254287  6103 layer_factory.hpp:74] Creating layer relu4_4
I1106 22:53:41.254295  6103 net.cpp:94] Creating Layer relu4_4
I1106 22:53:41.254300  6103 net.cpp:457] relu4_4 <- conv4_4
I1106 22:53:41.254305  6103 net.cpp:125] This layer is inheriting previous layer's sync mode: 1
I1106 22:53:41.254310  6103 net.cpp:402] relu4_4 -> conv4_4 (in-place)
I1106 22:53:41.254317  6103 net.cpp:158] Setting up relu4_4
I1106 22:53:41.254514  6103 net.cpp:165] Top shape: 64 512 28 28 (25690112)
I1106 22:53:41.254523  6103 layer_factory.hpp:74] Creating layer pool4
I1106 22:53:41.254529  6103 net.cpp:94] Creating Layer pool4
I1106 22:53:41.254533  6103 net.cpp:457] pool4 <- conv4_4
I1106 22:53:41.254536  6103 net.cpp:125] This layer is inheriting previous layer's sync mode: 1
I1106 22:53:41.254542  6103 net.cpp:413] pool4 -> pool4
I1106 22:53:41.254547  6103 net.cpp:158] Setting up pool4
I1106 22:53:41.254660  6103 net.cpp:165] Top shape: 64 512 14 14 (6422528)
I1106 22:53:41.254667  6103 layer_factory.hpp:74] Creating layer conv5_1
I1106 22:53:41.254674  6103 net.cpp:94] Creating Layer conv5_1
I1106 22:53:41.254678  6103 net.cpp:457] conv5_1 <- pool4
I1106 22:53:41.254681  6103 net.cpp:125] This layer is inheriting previous layer's sync mode: 1
I1106 22:53:41.254686  6103 net.cpp:413] conv5_1 -> conv5_1
I1106 22:53:41.254693  6103 net.cpp:158] Setting up conv5_1
I1106 22:53:41.302322  6103 net.cpp:165] Top shape: 64 512 14 14 (6422528)
I1106 22:53:41.302345  6103 layer_factory.hpp:74] Creating layer relu5_1
I1106 22:53:41.302355  6103 net.cpp:94] Creating Layer relu5_1
I1106 22:53:41.302359  6103 net.cpp:457] relu5_1 <- conv5_1
I1106 22:53:41.302379  6103 net.cpp:125] This layer is inheriting previous layer's sync mode: 1
I1106 22:53:41.302384  6103 net.cpp:402] relu5_1 -> conv5_1 (in-place)
I1106 22:53:41.302391  6103 net.cpp:158] Setting up relu5_1
I1106 22:53:41.302613  6103 net.cpp:165] Top shape: 64 512 14 14 (6422528)
I1106 22:53:41.302620  6103 layer_factory.hpp:74] Creating layer conv5_2
I1106 22:53:41.302629  6103 net.cpp:94] Creating Layer conv5_2
I1106 22:53:41.302633  6103 net.cpp:457] conv5_2 <- conv5_1
I1106 22:53:41.302636  6103 net.cpp:125] This layer is inheriting previous layer's sync mode: 1
I1106 22:53:41.302641  6103 net.cpp:413] conv5_2 -> conv5_2
I1106 22:53:41.302647  6103 net.cpp:158] Setting up conv5_2
I1106 22:53:41.351538  6103 net.cpp:165] Top shape: 64 512 14 14 (6422528)
I1106 22:53:41.351557  6103 layer_factory.hpp:74] Creating layer relu5_2
I1106 22:53:41.351572  6103 net.cpp:94] Creating Layer relu5_2
I1106 22:53:41.351577  6103 net.cpp:457] relu5_2 <- conv5_2
I1106 22:53:41.351583  6103 net.cpp:125] This layer is inheriting previous layer's sync mode: 1
I1106 22:53:41.351586  6103 net.cpp:402] relu5_2 -> conv5_2 (in-place)
I1106 22:53:41.351593  6103 net.cpp:158] Setting up relu5_2
I1106 22:53:41.351788  6103 net.cpp:165] Top shape: 64 512 14 14 (6422528)
I1106 22:53:41.351795  6103 layer_factory.hpp:74] Creating layer conv5_3
I1106 22:53:41.351804  6103 net.cpp:94] Creating Layer conv5_3
I1106 22:53:41.351809  6103 net.cpp:457] conv5_3 <- conv5_2
I1106 22:53:41.351812  6103 net.cpp:125] This layer is inheriting previous layer's sync mode: 1
I1106 22:53:41.351816  6103 net.cpp:413] conv5_3 -> conv5_3
I1106 22:53:41.351822  6103 net.cpp:158] Setting up conv5_3
I1106 22:53:41.400146  6103 net.cpp:165] Top shape: 64 512 14 14 (6422528)
I1106 22:53:41.400166  6103 layer_factory.hpp:74] Creating layer relu5_3
I1106 22:53:41.400177  6103 net.cpp:94] Creating Layer relu5_3
I1106 22:53:41.400182  6103 net.cpp:457] relu5_3 <- conv5_3
I1106 22:53:41.400187  6103 net.cpp:125] This layer is inheriting previous layer's sync mode: 1
I1106 22:53:41.400192  6103 net.cpp:402] relu5_3 -> conv5_3 (in-place)
I1106 22:53:41.400197  6103 net.cpp:158] Setting up relu5_3
I1106 22:53:41.400391  6103 net.cpp:165] Top shape: 64 512 14 14 (6422528)
I1106 22:53:41.400400  6103 layer_factory.hpp:74] Creating layer conv5_4
I1106 22:53:41.400408  6103 net.cpp:94] Creating Layer conv5_4
I1106 22:53:41.400413  6103 net.cpp:457] conv5_4 <- conv5_3
I1106 22:53:41.400416  6103 net.cpp:125] This layer is inheriting previous layer's sync mode: 1
I1106 22:53:41.400420  6103 net.cpp:413] conv5_4 -> conv5_4
I1106 22:53:41.400426  6103 net.cpp:158] Setting up conv5_4
I1106 22:53:41.448241  6103 net.cpp:165] Top shape: 64 512 14 14 (6422528)
I1106 22:53:41.448262  6103 layer_factory.hpp:74] Creating layer relu5_4
I1106 22:53:41.448271  6103 net.cpp:94] Creating Layer relu5_4
I1106 22:53:41.448276  6103 net.cpp:457] relu5_4 <- conv5_4
I1106 22:53:41.448282  6103 net.cpp:125] This layer is inheriting previous layer's sync mode: 1
I1106 22:53:41.448287  6103 net.cpp:402] relu5_4 -> conv5_4 (in-place)
I1106 22:53:41.448292  6103 net.cpp:158] Setting up relu5_4
I1106 22:53:41.448493  6103 net.cpp:165] Top shape: 64 512 14 14 (6422528)
I1106 22:53:41.448500  6103 layer_factory.hpp:74] Creating layer conv5_4_relu5_4_0_split
I1106 22:53:41.448511  6103 net.cpp:94] Creating Layer conv5_4_relu5_4_0_split
I1106 22:53:41.448514  6103 net.cpp:457] conv5_4_relu5_4_0_split <- conv5_4
I1106 22:53:41.448518  6103 net.cpp:125] This layer is inheriting previous layer's sync mode: 1
I1106 22:53:41.448523  6103 net.cpp:413] conv5_4_relu5_4_0_split -> conv5_4_relu5_4_0_split_0
I1106 22:53:41.448529  6103 net.cpp:413] conv5_4_relu5_4_0_split -> conv5_4_relu5_4_0_split_1
I1106 22:53:41.448534  6103 net.cpp:413] conv5_4_relu5_4_0_split -> conv5_4_relu5_4_0_split_2
I1106 22:53:41.448539  6103 net.cpp:413] conv5_4_relu5_4_0_split -> conv5_4_relu5_4_0_split_3
I1106 22:53:41.448542  6103 net.cpp:158] Setting up conv5_4_relu5_4_0_split
I1106 22:53:41.448551  6103 net.cpp:165] Top shape: 64 512 14 14 (6422528)
I1106 22:53:41.448567  6103 net.cpp:165] Top shape: 64 512 14 14 (6422528)
I1106 22:53:41.448572  6103 net.cpp:165] Top shape: 64 512 14 14 (6422528)
I1106 22:53:41.448575  6103 net.cpp:165] Top shape: 64 512 14 14 (6422528)
I1106 22:53:41.448578  6103 layer_factory.hpp:74] Creating layer pool5_spm5
I1106 22:53:41.448585  6103 net.cpp:94] Creating Layer pool5_spm5
I1106 22:53:41.448588  6103 net.cpp:457] pool5_spm5 <- conv5_4_relu5_4_0_split_0
I1106 22:53:41.448592  6103 net.cpp:125] This layer is inheriting previous layer's sync mode: 1
I1106 22:53:41.448596  6103 net.cpp:413] pool5_spm5 -> pool5_spm5
I1106 22:53:41.448601  6103 net.cpp:158] Setting up pool5_spm5
I1106 22:53:41.448720  6103 net.cpp:165] Top shape: 64 512 2 2 (131072)
I1106 22:53:41.448729  6103 layer_factory.hpp:74] Creating layer pool5_spm5_flatten
I1106 22:53:41.448735  6103 net.cpp:94] Creating Layer pool5_spm5_flatten
I1106 22:53:41.448739  6103 net.cpp:457] pool5_spm5_flatten <- pool5_spm5
I1106 22:53:41.448742  6103 net.cpp:125] This layer is inheriting previous layer's sync mode: 1
I1106 22:53:41.448746  6103 net.cpp:413] pool5_spm5_flatten -> pool5_spm5_flatten
I1106 22:53:41.448751  6103 net.cpp:158] Setting up pool5_spm5_flatten
I1106 22:53:41.448760  6103 net.cpp:165] Top shape: 64 2048 (131072)
I1106 22:53:41.448763  6103 layer_factory.hpp:74] Creating layer pool5_spm3
I1106 22:53:41.448768  6103 net.cpp:94] Creating Layer pool5_spm3
I1106 22:53:41.448771  6103 net.cpp:457] pool5_spm3 <- conv5_4_relu5_4_0_split_1
I1106 22:53:41.448775  6103 net.cpp:125] This layer is inheriting previous layer's sync mode: 1
I1106 22:53:41.448778  6103 net.cpp:413] pool5_spm3 -> pool5_spm3
I1106 22:53:41.448782  6103 net.cpp:158] Setting up pool5_spm3
I1106 22:53:41.448986  6103 net.cpp:165] Top shape: 64 512 5 5 (819200)
I1106 22:53:41.448995  6103 layer_factory.hpp:74] Creating layer pool5_spm3_flatten
I1106 22:53:41.449000  6103 net.cpp:94] Creating Layer pool5_spm3_flatten
I1106 22:53:41.449003  6103 net.cpp:457] pool5_spm3_flatten <- pool5_spm3
I1106 22:53:41.449007  6103 net.cpp:125] This layer is inheriting previous layer's sync mode: 1
I1106 22:53:41.449012  6103 net.cpp:413] pool5_spm3_flatten -> pool5_spm3_flatten
I1106 22:53:41.449017  6103 net.cpp:158] Setting up pool5_spm3_flatten
I1106 22:53:41.449021  6103 net.cpp:165] Top shape: 64 12800 (819200)
I1106 22:53:41.449024  6103 layer_factory.hpp:74] Creating layer pool5_spm2
I1106 22:53:41.449029  6103 net.cpp:94] Creating Layer pool5_spm2
I1106 22:53:41.449033  6103 net.cpp:457] pool5_spm2 <- conv5_4_relu5_4_0_split_2
I1106 22:53:41.449035  6103 net.cpp:125] This layer is inheriting previous layer's sync mode: 1
I1106 22:53:41.449039  6103 net.cpp:413] pool5_spm2 -> pool5_spm2
I1106 22:53:41.449043  6103 net.cpp:158] Setting up pool5_spm2
I1106 22:53:41.449159  6103 net.cpp:165] Top shape: 64 512 3 3 (294912)
I1106 22:53:41.449165  6103 layer_factory.hpp:74] Creating layer pool5_spm2_flatten
I1106 22:53:41.449172  6103 net.cpp:94] Creating Layer pool5_spm2_flatten
I1106 22:53:41.449174  6103 net.cpp:457] pool5_spm2_flatten <- pool5_spm2
I1106 22:53:41.449178  6103 net.cpp:125] This layer is inheriting previous layer's sync mode: 1
I1106 22:53:41.449182  6103 net.cpp:413] pool5_spm2_flatten -> pool5_spm2_flatten
I1106 22:53:41.449187  6103 net.cpp:158] Setting up pool5_spm2_flatten
I1106 22:53:41.449192  6103 net.cpp:165] Top shape: 64 4608 (294912)
I1106 22:53:41.449194  6103 layer_factory.hpp:74] Creating layer pool5_spm1
I1106 22:53:41.449199  6103 net.cpp:94] Creating Layer pool5_spm1
I1106 22:53:41.449203  6103 net.cpp:457] pool5_spm1 <- conv5_4_relu5_4_0_split_3
I1106 22:53:41.449205  6103 net.cpp:125] This layer is inheriting previous layer's sync mode: 1
I1106 22:53:41.449209  6103 net.cpp:413] pool5_spm1 -> pool5_spm1
I1106 22:53:41.449220  6103 net.cpp:158] Setting up pool5_spm1
I1106 22:53:41.449420  6103 net.cpp:165] Top shape: 64 512 1 1 (32768)
I1106 22:53:41.449429  6103 layer_factory.hpp:74] Creating layer pool5_spm1_flatten
I1106 22:53:41.449435  6103 net.cpp:94] Creating Layer pool5_spm1_flatten
I1106 22:53:41.449445  6103 net.cpp:457] pool5_spm1_flatten <- pool5_spm1
I1106 22:53:41.449450  6103 net.cpp:125] This layer is inheriting previous layer's sync mode: 1
I1106 22:53:41.449453  6103 net.cpp:413] pool5_spm1_flatten -> pool5_spm1_flatten
I1106 22:53:41.449458  6103 net.cpp:158] Setting up pool5_spm1_flatten
I1106 22:53:41.449463  6103 net.cpp:165] Top shape: 64 512 (32768)
I1106 22:53:41.449467  6103 layer_factory.hpp:74] Creating layer pool5_spm
I1106 22:53:41.449475  6103 net.cpp:94] Creating Layer pool5_spm
I1106 22:53:41.449478  6103 net.cpp:457] pool5_spm <- pool5_spm1_flatten
I1106 22:53:41.449481  6103 net.cpp:457] pool5_spm <- pool5_spm2_flatten
I1106 22:53:41.449486  6103 net.cpp:457] pool5_spm <- pool5_spm3_flatten
I1106 22:53:41.449488  6103 net.cpp:457] pool5_spm <- pool5_spm5_flatten
I1106 22:53:41.449491  6103 net.cpp:125] This layer is inheriting previous layer's sync mode: 1
I1106 22:53:41.449497  6103 net.cpp:413] pool5_spm -> pool5_spm
I1106 22:53:41.449506  6103 net.cpp:158] Setting up pool5_spm
I1106 22:53:41.449514  6103 net.cpp:165] Top shape: 64 19968 (1277952)
I1106 22:53:41.449519  6103 layer_factory.hpp:74] Creating layer pool5_gather
I1106 22:53:41.449525  6103 net.cpp:94] Creating Layer pool5_gather
I1106 22:53:41.449528  6103 net.cpp:457] pool5_gather <- pool5_spm
I1106 22:53:41.449532  6103 net.cpp:457] pool5_gather <- label_gather
I1106 22:53:41.449538  6103 net.cpp:413] pool5_gather -> pool5_spm_gather
I1106 22:53:41.449544  6103 net.cpp:413] pool5_gather -> label
I1106 22:53:41.449548  6103 net.cpp:158] Setting up pool5_gather
I1106 22:53:41.449556  6103 net.cpp:165] Top shape: 64 19968 (1277952)
I1106 22:53:41.449560  6103 net.cpp:165] Top shape: 64 (64)
I1106 22:53:41.449563  6103 layer_factory.hpp:74] Creating layer fc6-spp
I1106 22:53:41.449570  6103 net.cpp:94] Creating Layer fc6-spp
I1106 22:53:41.449574  6103 net.cpp:457] fc6-spp <- pool5_spm_gather
I1106 22:53:41.449579  6103 net.cpp:125] This layer is inheriting previous layer's sync mode: 0
I1106 22:53:41.449584  6103 net.cpp:413] fc6-spp -> fc6
I1106 22:53:41.449591  6103 net.cpp:158] Setting up fc6-spp
I1106 22:53:43.313849  6103 net.cpp:165] Top shape: 64 4096 (262144)
I1106 22:53:43.313889  6103 layer_factory.hpp:74] Creating layer relu6
I1106 22:53:43.313904  6103 net.cpp:94] Creating Layer relu6
I1106 22:53:43.313910  6103 net.cpp:457] relu6 <- fc6
I1106 22:53:43.313920  6103 net.cpp:125] This layer is inheriting previous layer's sync mode: 0
I1106 22:53:43.313926  6103 net.cpp:402] relu6 -> fc6 (in-place)
I1106 22:53:43.313936  6103 net.cpp:158] Setting up relu6
I1106 22:53:43.314201  6103 net.cpp:165] Top shape: 64 4096 (262144)
I1106 22:53:43.314213  6103 layer_factory.hpp:74] Creating layer drop6
I1106 22:53:43.314227  6103 net.cpp:94] Creating Layer drop6
I1106 22:53:43.314234  6103 net.cpp:457] drop6 <- fc6
I1106 22:53:43.314240  6103 net.cpp:125] This layer is inheriting previous layer's sync mode: 0
I1106 22:53:43.314251  6103 net.cpp:402] drop6 -> fc6 (in-place)
I1106 22:53:43.314260  6103 net.cpp:158] Setting up drop6
I1106 22:53:43.314273  6103 net.cpp:165] Top shape: 64 4096 (262144)
I1106 22:53:43.314280  6103 layer_factory.hpp:74] Creating layer fc7-spp
I1106 22:53:43.314292  6103 net.cpp:94] Creating Layer fc7-spp
I1106 22:53:43.314298  6103 net.cpp:457] fc7-spp <- fc6
I1106 22:53:43.314304  6103 net.cpp:125] This layer is inheriting previous layer's sync mode: 0
I1106 22:53:43.314312  6103 net.cpp:413] fc7-spp -> fc7
I1106 22:53:43.314321  6103 net.cpp:158] Setting up fc7-spp
I1106 22:53:43.647992  6103 net.cpp:165] Top shape: 64 4096 (262144)
I1106 22:53:43.648026  6103 layer_factory.hpp:74] Creating layer relu7
I1106 22:53:43.648036  6103 net.cpp:94] Creating Layer relu7
I1106 22:53:43.648042  6103 net.cpp:457] relu7 <- fc7
I1106 22:53:43.648049  6103 net.cpp:125] This layer is inheriting previous layer's sync mode: 0
I1106 22:53:43.648054  6103 net.cpp:402] relu7 -> fc7 (in-place)
I1106 22:53:43.648061  6103 net.cpp:158] Setting up relu7
I1106 22:53:43.648474  6103 net.cpp:165] Top shape: 64 4096 (262144)
I1106 22:53:43.648485  6103 layer_factory.hpp:74] Creating layer drop7
I1106 22:53:43.648494  6103 net.cpp:94] Creating Layer drop7
I1106 22:53:43.648499  6103 net.cpp:457] drop7 <- fc7
I1106 22:53:43.648504  6103 net.cpp:125] This layer is inheriting previous layer's sync mode: 0
I1106 22:53:43.648507  6103 net.cpp:402] drop7 -> fc7 (in-place)
I1106 22:53:43.648512  6103 net.cpp:158] Setting up drop7
I1106 22:53:43.648519  6103 net.cpp:165] Top shape: 64 4096 (262144)
I1106 22:53:43.648521  6103 layer_factory.hpp:74] Creating layer fc8-spp_ft
I1106 22:53:43.648530  6103 net.cpp:94] Creating Layer fc8-spp_ft
I1106 22:53:43.648538  6103 net.cpp:457] fc8-spp_ft <- fc7
I1106 22:53:43.648542  6103 net.cpp:125] This layer is inheriting previous layer's sync mode: 0
I1106 22:53:43.648546  6103 net.cpp:413] fc8-spp_ft -> fc8_ft
I1106 22:53:43.648552  6103 net.cpp:158] Setting up fc8-spp_ft
I1106 22:53:43.728255  6103 net.cpp:165] Top shape: 64 1001 (64064)
I1106 22:53:43.728278  6103 layer_factory.hpp:74] Creating layer loss
I1106 22:53:43.728291  6103 net.cpp:94] Creating Layer loss
I1106 22:53:43.728297  6103 net.cpp:457] loss <- fc8_ft
I1106 22:53:43.728302  6103 net.cpp:457] loss <- label
I1106 22:53:43.728307  6103 net.cpp:125] This layer is inheriting previous layer's sync mode: 0
I1106 22:53:43.728312  6103 net.cpp:413] loss -> loss
…
  name: "data"
  type: "WindowData"
  top: "data"
  top: "label_gather"
  include {
    phase: TEST
  }
  transform_param {
    mirror: true
    crop_size: 224
    mean_value: 104
    mean_value: 117
    mean_value: 123
  }
  window_data_param {
    source: "/home/hongyang/research_office/project/cvpr16/finetune/output/old/cls_1k_val.txt"
    batch_size: 10
    fg_threshold: 0.500001
    bg_threshold: 0.500001
    fg_fraction: 0.25
    context_pad: 16
    crop_mode: "warp"
    root_folder: "/home/hongyang/ImageNet_data_1/cls_original_image/val"
  }
}
layer {
  name: "conv1_1"
  type: "Convolution"
  bottom: "data"
  top: "conv1_1"
  param {
    lr_mult: 0
    decay_mult: 1
  }
  param {
    lr_mult: 0
    decay_mult: 0
  }
  convolution_param {
    num_output: 64
    pad: 1
    kernel_size: 3
    weight_filler {
      type: "gaussian"
      std: 0.059
    }
    bias_filler {
      type: "constant"
      value: 0
    }
  }
}
layer {
  name: "relu1_1"
  type: "ReLU"
  bottom: "conv1_1"
  top: "conv1_1"
}
layer {
  name: "conv1_2"
  type: "Convolution"
  bottom: "conv1_1"
  top: "conv1_2"
  param {
    lr_mult: 0
    decay_mult: 1
  }
  param {
    lr_mult: 0
    decay_mult: 0
  }
  convolution_param {
    num_output: 64
    pad: 1
    kernel_size: 3
    weight_filler {
      type: "gaussian"
      std: 0.059
    }
    bias_filler {
      type: "constant"
      value: 0
    }
  }
}
layer {
  name: "relu1_2"
  type: "ReLU"
  bottom: "conv1_2"
  top: "conv1_2"
}
layer {
  name: "pool1"
  type: "Pooling"
  bottom: "conv1_2"
  top: "pool1"
  pooling_param {
    pool: MAX
    kernel_size: 2
    stride: 2
  }
}
layer {
  name: "conv2_1"
  type: "Convolution"
  bottom: "pool1"
  top: "conv2_1"
  param {
    lr_mult: 0
    decay_mult: 1
  }
  param {
    lr_mult: 0
    decay_mult: 0
  }
  convolution_param {
    num_output: 128
    pad: 1
    kernel_size: 3
    weight_filler {
      type: "gaussian"
      std: 0.042
    }
    bias_filler {
      type: "constant"
      value: 0
    }
  }
}
layer {
  name: "relu2_1"
  type: "ReLU"
  bottom: "conv2_1"
  top: "conv2_1"
}
layer {
  name: "conv2_2"
  type: "Convolution"
  bottom: "conv2_1"
  top: "conv2_2"
  param {
    lr_mult: 0
    decay_mult: 1
  }
  param {
    lr_mult: 0
    decay_mult: 0
  }
  convolution_param {
    num_output: 128
    pad: 1
    kernel_size: 3
    weight_filler {
      type: "gaussian"
      std: 0.042
    }
    bias_filler {
      type: "constant"
      value: 0
    }
  }
}
layer {
  name: "relu2_2"
  type: "ReLU"
  bottom: "conv2_2"
  top: "conv2_2"
}
layer {
  name: "pool2"
  type: "Pooling"
  bottom: "conv2_2"
  top: "pool2"
  pooling_param {
    pool: MAX
    kernel_size: 2
    stride: 2
  }
}
layer {
  name: "conv3_1"
  type: "Convolution"
  bottom: "pool2"
  top: "conv3_1"
  param {
    lr_mult: 0
    decay_mult: 1
  }
  param {
    lr_mult: 0
    decay_mult: 0
  }
  convolution_param {
    num_output: 256
    pad: 1
    kernel_size: 3
    weight_filler {
      type: "gaussian"
      std: 0.029
    }
    bias_filler {
      type: "constant"
      value: 0
    }
  }
}
layer {
  name: "relu3_1"
  type: "ReLU"
  bottom: "conv3_1"
  top: "conv3_1"
}
layer {
  name: "conv3_2"
  type: "Convolution"
  bottom: "conv3_1"
  top: "conv3_2"
  param {
    lr_mult: 0
    decay_mult: 1
  }
  param {
    lr_mult: 0
    decay_mult: 0
  }
  convolution_param {
    num_output: 256
    pad: 1
    kernel_size: 3
    weight_filler {
      type: "gaussian"
      std: 0.029
    }
    bias_filler {
      type: "constant"
      value: 0
    }
  }
}
layer {
  name: "relu3_2"
  type: "ReLU"
  bottom: "conv3_2"
  top: "conv3_2"
}
layer {
  name: "conv3_3"
  type: "Convolution"
  bottom: "conv3_2"
  top: "conv3_3"
  param {
    lr_mult: 0
    decay_mult: 1
  }
  param {
    lr_mult: 0
    decay_mult: 0
  }
  convolution_param {
    num_output: 256
    pad: 1
    kernel_size: 3
    weight_filler {
      type: "gaussian"
      std: 0.029
    }
    bias_filler {
      type: "constant"
      value: 0
    }
  }
}
layer {
  name: "relu3_3"
  type: "ReLU"
  bottom: "conv3_3"
  top: "conv3_3"
}
layer {
  name: "conv3_4"
  type: "Convolution"
  bottom: "conv3_3"
  top: "conv3_4"
  param {
    lr_mult: 0
    decay_mult: 1
  }
  param {
    lr_mult: 0
    decay_mult: 0
  }
  convolution_param {
    num_output: 256
    pad: 1
    kernel_size: 3
    weight_filler {
      type: "gaussian"
      std: 0.029
    }
    bias_filler {
      type: "constant"
      value: 0
    }
  }
}
layer {
  name: "relu3_4"
  type: "ReLU"
  bottom: "conv3_4"
  top: "conv3_4"
}
layer {
  name: "pool3"
  type: "Pooling"
  bottom: "conv3_4"
  top: "pool3"
  pooling_param {
    pool: MAX
    kernel_size: 2
    stride: 2
  }
}
layer {
  name: "conv4_1"
  type: "Convolution"
  bottom: "pool3"
  top: "conv4_1"
  param {
    lr_mult: 0
    decay_mult: 1
  }
  param {
    lr_mult: 0
    decay_mult: 0
  }
  convolution_param {
    num_output: 512
    pad: 1
    kernel_size: 3
    weight_filler {
      type: "gaussian"
      std: 0.021
    }
    bias_filler {
      type: "constant"
      value: 0
    }
  }
}
layer {
  name: "relu4_1"
  type: "ReLU"
  bottom: "conv4_1"
  top: "conv4_1"
}
layer {
  name: "conv4_2"
  type: "Convolution"
  bottom: "conv4_1"
  top: "conv4_2"
  param {
    lr_mult: 0
    decay_mult: 1
  }
  param {
    lr_mult: 0
    decay_mult: 0
  }
  convolution_param {
    num_output: 512
    pad: 1
    kernel_size: 3
    weight_filler {
      type: "gaussian"
      std: 0.021
    }
    bias_filler {
      type: "constant"
      value: 0
    }
  }
}
layer {
  name: "relu4_2"
  type: "ReLU"
  bottom: "conv4_2"
  top: "conv4_2"
}
layer {
  name: "conv4_3"
  type: "Convolution"
  bottom: "conv4_2"
  top: "conv4_3"
  param {
    lr_mult: 0
    decay_mult: 1
  }
  param {
    lr_mult: 0
    decay_mult: 0
  }
  convolution_param {
    num_output: 512
    pad: 1
    kernel_size: 3
    weight_filler {
      type: "gaussian"
      std: 0.021
    }
    bias_filler {
      type: "constant"
      value: 0
    }
  }
}
layer {
  name: "relu4_3"
  type: "ReLU"
  bottom: "conv4_3"
  top: "conv4_3"
}
layer {
  name: "conv4_4"
  type: "Convolution"
  bottom: "conv4_3"
  top: "conv4_4"
  param {
    lr_mult: 0
    decay_mult: 1
  }
  param {
    lr_mult: 0
    decay_mult: 0
  }
  convolution_param {
    num_output: 512
    pad: 1
    kernel_size: 3
    weight_filler {
      type: "gaussian"
      std: 0.021
    }
    bias_filler {
      type: "constant"
      value: 0
    }
  }
}
layer {
  name: "relu4_4"
  type: "ReLU"
  bottom: "conv4_4"
  top: "conv4_4"
}
layer {
  name: "pool4"
  type: "Pooling"
  bottom: "conv4_4"
  top: "pool4"
  pooling_param {
    pool: MAX
    kernel_size: 2
    stride: 2
  }
}
layer {
  name: "conv5_1"
  type: "Convolution"
  bottom: "pool4"
  top: "conv5_1"
  param {
    lr_mult: 0
    decay_mult: 1
  }
  param {
    lr_mult: 0
    decay_mult: 0
  }
  convolution_param {
    num_output: 512
    pad: 1
    kernel_size: 3
    weight_filler {
      type: "gaussian"
      std: 0.021
    }
    bias_filler {
      type: "constant"
      value: 0
    }
  }
}
layer {
  name: "relu5_1"
  type: "ReLU"
  bottom: "conv5_1"
  top: "conv5_1"
}
layer {
  name: "conv5_2"
  type: "Convolution"
  bottom: "conv5_1"
  top: "conv5_2"
  param {
    lr_mult: 0
    decay_mult: 1
  }
  param {
    lr_mult: 0
    decay_mult: 0
  }
  convolution_param {
    num_output: 512
    pad: 1
    kernel_size: 3
    weight_filler {
      type: "gaussian"
      std: 0.021
    }
    bias_filler {
      type: "constant"
      value: 0
    }
  }
}
layer {
  name: "relu5_2"
  type: "ReLU"
  bottom: "conv5_2"
  top: "conv5_2"
}
layer {
  name: "conv5_3"
  type: "Convolution"
  bottom: "conv5_2"
  top: "conv5_3"
  param {
    lr_mult: 0
    decay_mult: 1
  }
  param {
    lr_mult: 0
    decay_mult: 0
  }
  convolution_param {
    num_output: 512
    pad: 1
    kernel_size: 3
    weight_filler {
      type: "gaussian"
      std: 0.021
    }
    bias_filler {
      type: "constant"
      value: 0
    }
  }
}
layer {
  name: "relu5_3"
  type: "ReLU"
  bottom: "conv5_3"
  top: "conv5_3"
}
layer {
  name: "conv5_4"
  type: "Convolution"
  bottom: "conv5_3"
  top: "conv5_4"
  param {
    lr_mult: 0
    decay_mult: 1
  }
  param {
    lr_mult: 0
    decay_mult: 0
  }
  convolution_param {
    num_output: 512
    pad: 1
    kernel_size: 3
    weight_filler {
      type: "gaussian"
      std: 0.021
    }
    bias_filler {
      type: "constant"
      value: 0
    }
  }
}
layer {
  name: "relu5_4"
  type: "ReLU"
  bottom: "conv5_4"
  top: "conv5_4"
}
layer {
  name: "pool5_spm5"
  type: "Pooling"
  bottom: "conv5_4"
  top: "pool5_spm5"
  pooling_param {
    pool: MAX
    kernel_size: 7
    stride: 7
  }
}
layer {
  name: "pool5_spm5_flatten"
  type: "Flatten"
  bottom: "pool5_spm5"
  top: "pool5_spm5_flatten"
}
layer {
  name: "pool5_spm3"
  type: "Pooling"
  bottom: "conv5_4"
  top: "pool5_spm3"
  pooling_param {
    pool: MAX
    kernel_size: 3
    stride: 3
  }
}
layer {
  name: "pool5_spm3_flatten"
  type: "Flatten"
  bottom: "pool5_spm3"
  top: "pool5_spm3_flatten"
}
layer {
  name: "pool5_spm2"
  type: "Pooling"
  bottom: "conv5_4"
  top: "pool5_spm2"
  pooling_param {
    pool: MAX
    kernel_size: 5
    stride: 5
  }
}
layer {
  name: "pool5_spm2_flatten"
  type: "Flatten"
  bottom: "pool5_spm2"
  top: "pool5_spm2_flatten"
}
layer {
  name: "pool5_spm1"
  type: "Pooling"
  bottom: "conv5_4"
  top: "pool5_spm1"
  pooling_param {
    pool: MAX
    kernel_size: 14
    stride: 14
  }
}
layer {
  name: "pool5_spm1_flatten"
  type: "Flatten"
  bottom: "pool5_spm1"
  top: "pool5_spm1_flatten"
}
layer {
  name: "pool5_spm"
  type: "Concat"
  bottom: "pool5_spm1_flatten"
  bottom: "pool5_spm2_flatten"
  bottom: "pool5_spm3_flatten"
  bottom: "pool5_spm5_flatten"
  top: "pool5_spm"
  concat_param {
    concat_dim: 1
  }
}
layer {
  name: "pool5_gather"
  type: "Gather"
  bottom: "pool5_spm"
  bottom: "label_gather"
  top: "pool5_spm_gather"
  top: "label"
}
layer {
  name: "fc6-spp"
  type: "InnerProduct"
  bottom: "pool5_spm_gather"
  top: "fc6"
  param {
    lr_mult: 0
    decay_mult: 1
  }
  param {
    lr_mult: 0
    decay_mult: 0
  }
  inner_product_param {
    num_output: 4096
    weight_filler {
      type: "gaussian"
      std: 0.01
    }
    bias_filler {
      type: "constant"
      value: 0
    }
  }
}
layer {
  name: "relu6"
  type: "ReLU"
  bottom: "fc6"
  top: "fc6"
}
layer {
  name: "drop6"
  type: "Dropout"
  bottom: "fc6"
  top: "fc6"
  dropout_param {
    dropout_ratio: 0.5
  }
}
layer {
  name: "fc7-spp"
  type: "InnerProduct"
  bottom: "fc6"
  top: "fc7"
  param {
    lr_mult: 0
    decay_mult: 1
  }
  param {
    lr_mult: 0
    decay_mult: 0
  }
  inner_product_param {
    num_output: 4096
    weight_filler {
      type: "gaussian"
      std: 0.01
    }
    bias_filler {
      type: "constant"
      value: 0
    }
  }
}
layer {
  name: "relu7"
  type: "ReLU"
  bottom: "fc7"
  top: "fc7"
}
layer {
  name: "drop7"
  type: "Dropout"
  bottom: "fc7"
  top: "fc7"
  dropout_param {
    dropout_ratio: 0.5
  }
}
layer {
  name: "fc8-spp_ft"
  type: "InnerProduct"
  bottom: "fc7"
  top: "fc8_ft"
  param {
    lr_mult: 1
    decay_mult: 1
  }
  param {
    lr_mult: 0
    decay_mult: 0
  }
  inner_product_param {
    num_output: 1001
    weight_filler {
      type: "gaussian"
      std: 0.001
    }
    bias_filler {
      type: "constant"
      value: 0
    }
  }
}
layer {
  name: "loss"
  type: "HingeLoss4Det"
  bottom: "fc8_ft"
  bottom: "label"
  top: "loss"
  loss_weight: 1
}
layer {
  name: "loss_top-1"
  type: "Accuracy"
  bottom: "fc8_ft"
  bottom: "label"
  top: "loss_top-1"
  include {
    phase: TEST
  }
  accuracy_param {
    top_k: 1
    type: 2
  }
}
layer {
  name: "loss_top-5"
  type: "Accuracy"
  bottom: "fc8_ft"
  bottom: "label"
  top: "loss_top-5"
  include {
    phase: TEST
  }
  accuracy_param {
    top_k: 5
    type: 2
  }
}
I1106 22:53:43.730329  6103 layer_factory.hpp:74] Creating layer data
I1106 22:53:43.730339  6103 net.cpp:94] Creating Layer data
I1106 22:53:43.730343  6103 net.cpp:413] data -> data
I1106 22:53:43.730350  6103 net.cpp:413] data -> label_gather
I1106 22:53:43.730356  6103 net.cpp:158] Setting up data
…
I1106 22:53:49.935513  6103 window_data_layer.cpp:168] class 997 has 2221 samples
I1106 22:53:49.935515  6103 window_data_layer.cpp:168] class 998 has 1665 samples
I1106 22:53:49.935518  6103 window_data_layer.cpp:168] class 999 has 1145 samples
I1106 22:53:49.935520  6103 window_data_layer.cpp:168] class 1000 has 902 samples
I1106 22:53:49.935523  6103 window_data_layer.cpp:172] Amount of context padding: 16
I1106 22:53:49.935525  6103 window_data_layer.cpp:175] Crop mode: warp
I1106 22:53:49.935533  6103 window_data_layer.cpp:185] output data size: 10,3,224,224
I1106 22:53:49.936238  6103 net.cpp:165] Top shape: 10 3 224 224 (1505280)
I1106 22:53:49.936249  6103 net.cpp:165] Top shape: 10 (10)
I1106 22:53:49.936259  6103 layer_factory.hpp:74] Creating layer conv1_1
I1106 22:53:49.936292  6103 net.cpp:94] Creating Layer conv1_1
I1106 22:53:49.936306  6103 net.cpp:457] conv1_1 <- data
I1106 22:53:49.936321  6103 net.cpp:125] This layer is inheriting previous layer's sync mode: 1
I1106 22:53:49.936336  6103 net.cpp:413] conv1_1 -> conv1_1
I1106 22:53:49.936362  6103 net.cpp:158] Setting up conv1_1
I1106 22:53:49.937360  6103 net.cpp:165] Top shape: 10 64 224 224 (32112640)
I1106 22:53:49.937376  6103 layer_factory.hpp:74] Creating layer relu1_1
I1106 22:53:49.937384  6103 net.cpp:94] Creating Layer relu1_1
I1106 22:53:49.937388  6103 net.cpp:457] relu1_1 <- conv1_1
I1106 22:53:49.937392  6103 net.cpp:125] This layer is inheriting previous layer's sync mode: 1
I1106 22:53:49.937397  6103 net.cpp:402] relu1_1 -> conv1_1 (in-place)
I1106 22:53:49.937402  6103 net.cpp:158] Setting up relu1_1
I1106 22:53:49.937521  6103 net.cpp:165] Top shape: 10 64 224 224 (32112640)
I1106 22:53:49.937527  6103 layer_factory.hpp:74] Creating layer conv1_2
I1106 22:53:49.937535  6103 net.cpp:94] Creating Layer conv1_2
I1106 22:53:49.937538  6103 net.cpp:457] conv1_2 <- conv1_1
I1106 22:53:49.937542  6103 net.cpp:125] This layer is inheriting previous layer's sync mode: 1
I1106 22:53:49.937546  6103 net.cpp:413] conv1_2 -> conv1_2
I1106 22:53:49.937552  6103 net.cpp:158] Setting up conv1_2
I1106 22:53:49.938782  6103 net.cpp:165] Top shape: 10 64 224 224 (32112640)
I1106 22:53:49.938796  6103 layer_factory.hpp:74] Creating layer relu1_2
I1106 22:53:49.938802  6103 net.cpp:94] Creating Layer relu1_2
I1106 22:53:49.938804  6103 net.cpp:457] relu1_2 <- conv1_2
I1106 22:53:49.938808  6103 net.cpp:125] This layer is inheriting previous layer's sync mode: 1
I1106 22:53:49.938812  6103 net.cpp:402] relu1_2 -> conv1_2 (in-place)
I1106 22:53:49.938817  6103 net.cpp:158] Setting up relu1_2
I1106 22:53:49.939002  6103 net.cpp:165] Top shape: 10 64 224 224 (32112640)
I1106 22:53:49.939010  6103 layer_factory.hpp:74] Creating layer pool1
I1106 22:53:49.939018  6103 net.cpp:94] Creating Layer pool1
I1106 22:53:49.939020  6103 net.cpp:457] pool1 <- conv1_2
I1106 22:53:49.939024  6103 net.cpp:125] This layer is inheriting previous layer's sync mode: 1
I1106 22:53:49.939028  6103 net.cpp:413] pool1 -> pool1
I1106 22:53:49.939034  6103 net.cpp:158] Setting up pool1
I1106 22:53:49.939139  6103 net.cpp:165] Top shape: 10 64 112 112 (8028160)
I1106 22:53:49.939146  6103 layer_factory.hpp:74] Creating layer conv2_1
I1106 22:53:49.939152  6103 net.cpp:94] Creating Layer conv2_1
I1106 22:53:49.939155  6103 net.cpp:457] conv2_1 <- pool1
I1106 22:53:49.939159  6103 net.cpp:125] This layer is inheriting previous layer's sync mode: 1
I1106 22:53:49.939163  6103 net.cpp:413] conv2_1 -> conv2_1
I1106 22:53:49.939169  6103 net.cpp:158] Setting up conv2_1
I1106 22:53:49.941110  6103 net.cpp:165] Top shape: 10 128 112 112 (16056320)
I1106 22:53:49.941123  6103 layer_factory.hpp:74] Creating layer relu2_1
I1106 22:53:49.941128  6103 net.cpp:94] Creating Layer relu2_1
I1106 22:53:49.941133  6103 net.cpp:457] relu2_1 <- conv2_1
I1106 22:53:49.941136  6103 net.cpp:125] This layer is inheriting previous layer's sync mode: 1
I1106 22:53:49.941140  6103 net.cpp:402] relu2_1 -> conv2_1 (in-place)
I1106 22:53:49.941154  6103 net.cpp:158] Setting up relu2_1
I1106 22:53:49.941258  6103 net.cpp:165] Top shape: 10 128 112 112 (16056320)
I1106 22:53:49.941265  6103 layer_factory.hpp:74] Creating layer conv2_2
I1106 22:53:49.941273  6103 net.cpp:94] Creating Layer conv2_2
I1106 22:53:49.941277  6103 net.cpp:457] conv2_2 <- conv2_1
I1106 22:53:49.941280  6103 net.cpp:125] This layer is inheriting previous layer's sync mode: 1
I1106 22:53:49.941284  6103 net.cpp:413] conv2_2 -> conv2_2
I1106 22:53:49.941290  6103 net.cpp:158] Setting up conv2_2
I1106 22:53:49.944602  6103 net.cpp:165] Top shape: 10 128 112 112 (16056320)
I1106 22:53:49.944613  6103 layer_factory.hpp:74] Creating layer relu2_2
I1106 22:53:49.944619  6103 net.cpp:94] Creating Layer relu2_2
I1106 22:53:49.944622  6103 net.cpp:457] relu2_2 <- conv2_2
I1106 22:53:49.944627  6103 net.cpp:125] This layer is inheriting previous layer's sync mode: 1
I1106 22:53:49.944629  6103 net.cpp:402] relu2_2 -> conv2_2 (in-place)
I1106 22:53:49.944634  6103 net.cpp:158] Setting up relu2_2
I1106 22:53:49.944833  6103 net.cpp:165] Top shape: 10 128 112 112 (16056320)
I1106 22:53:49.944842  6103 layer_factory.hpp:74] Creating layer pool2
I1106 22:53:49.944849  6103 net.cpp:94] Creating Layer pool2
I1106 22:53:49.944851  6103 net.cpp:457] pool2 <- conv2_2
I1106 22:53:49.944855  6103 net.cpp:125] This layer is inheriting previous layer's sync mode: 1
I1106 22:53:49.944859  6103 net.cpp:413] pool2 -> pool2
I1106 22:53:49.944865  6103 net.cpp:158] Setting up pool2
I1106 22:53:49.944983  6103 net.cpp:165] Top shape: 10 128 56 56 (4014080)
I1106 22:53:49.944990  6103 layer_factory.hpp:74] Creating layer conv3_1
I1106 22:53:49.944996  6103 net.cpp:94] Creating Layer conv3_1
I1106 22:53:49.944999  6103 net.cpp:457] conv3_1 <- pool2
I1106 22:53:49.945003  6103 net.cpp:125] This layer is inheriting previous layer's sync mode: 1
I1106 22:53:49.945008  6103 net.cpp:413] conv3_1 -> conv3_1
I1106 22:53:49.945015  6103 net.cpp:158] Setting up conv3_1
I1106 22:53:49.951210  6103 net.cpp:165] Top shape: 10 256 56 56 (8028160)
I1106 22:53:49.951223  6103 layer_factory.hpp:74] Creating layer relu3_1
I1106 22:53:49.951230  6103 net.cpp:94] Creating Layer relu3_1
I1106 22:53:49.951232  6103 net.cpp:457] relu3_1 <- conv3_1
I1106 22:53:49.951236  6103 net.cpp:125] This layer is inheriting previous layer's sync mode: 1
I1106 22:53:49.951241  6103 net.cpp:402] relu3_1 -> conv3_1 (in-place)
I1106 22:53:49.951246  6103 net.cpp:158] Setting up relu3_1
I1106 22:53:49.951514  6103 net.cpp:165] Top shape: 10 256 56 56 (8028160)
I1106 22:53:49.951521  6103 layer_factory.hpp:74] Creating layer conv3_2
I1106 22:53:49.951529  6103 net.cpp:94] Creating Layer conv3_2
I1106 22:53:49.951532  6103 net.cpp:457] conv3_2 <- conv3_1
I1106 22:53:49.951536  6103 net.cpp:125] This layer is inheriting previous layer's sync mode: 1
I1106 22:53:49.951540  6103 net.cpp:413] conv3_2 -> conv3_2
I1106 22:53:49.951546  6103 net.cpp:158] Setting up conv3_2
I1106 22:53:49.965486  6103 net.cpp:165] Top shape: 10 256 56 56 (8028160)
I1106 22:53:49.965504  6103 layer_factory.hpp:74] Creating layer relu3_2
I1106 22:53:49.965514  6103 net.cpp:94] Creating Layer relu3_2
I1106 22:53:49.965520  6103 net.cpp:457] relu3_2 <- conv3_2
I1106 22:53:49.965528  6103 net.cpp:125] This layer is inheriting previous layer's sync mode: 1
I1106 22:53:49.965534  6103 net.cpp:402] relu3_2 -> conv3_2 (in-place)
I1106 22:53:49.965543  6103 net.cpp:158] Setting up relu3_2
I1106 22:53:49.965809  6103 net.cpp:165] Top shape: 10 256 56 56 (8028160)
I1106 22:53:49.965821  6103 layer_factory.hpp:74] Creating layer conv3_3
I1106 22:53:49.965833  6103 net.cpp:94] Creating Layer conv3_3
I1106 22:53:49.965838  6103 net.cpp:457] conv3_3 <- conv3_2
I1106 22:53:49.965844  6103 net.cpp:125] This layer is inheriting previous layer's sync mode: 1
I1106 22:53:49.965852  6103 net.cpp:413] conv3_3 -> conv3_3
I1106 22:53:49.965862  6103 net.cpp:158] Setting up conv3_3
I1106 22:53:49.979740  6103 net.cpp:165] Top shape: 10 256 56 56 (8028160)
I1106 22:53:49.979758  6103 layer_factory.hpp:74] Creating layer relu3_3
I1106 22:53:49.979789  6103 net.cpp:94] Creating Layer relu3_3
I1106 22:53:49.979799  6103 net.cpp:457] relu3_3 <- conv3_3
I1106 22:53:49.979806  6103 net.cpp:125] This layer is inheriting previous layer's sync mode: 1
I1106 22:53:49.979812  6103 net.cpp:402] relu3_3 -> conv3_3 (in-place)
I1106 22:53:49.979820  6103 net.cpp:158] Setting up relu3_3
I1106 22:53:49.979974  6103 net.cpp:165] Top shape: 10 256 56 56 (8028160)
I1106 22:53:49.979984  6103 layer_factory.hpp:74] Creating layer conv3_4
I1106 22:53:49.979995  6103 net.cpp:94] Creating Layer conv3_4
I1106 22:53:49.980000  6103 net.cpp:457] conv3_4 <- conv3_3
I1106 22:53:49.980006  6103 net.cpp:125] This layer is inheriting previous layer's sync mode: 1
I1106 22:53:49.980016  6103 net.cpp:413] conv3_4 -> conv3_4
I1106 22:53:49.980026  6103 net.cpp:158] Setting up conv3_4
I1106 22:53:49.992702  6103 net.cpp:165] Top shape: 10 256 56 56 (8028160)
I1106 22:53:49.992719  6103 layer_factory.hpp:74] Creating layer relu3_4
I1106 22:53:49.992728  6103 net.cpp:94] Creating Layer relu3_4
I1106 22:53:49.992734  6103 net.cpp:457] relu3_4 <- conv3_4
I1106 22:53:49.992740  6103 net.cpp:125] This layer is inheriting previous layer's sync mode: 1
I1106 22:53:49.992746  6103 net.cpp:402] relu3_4 -> conv3_4 (in-place)
I1106 22:53:49.992754  6103 net.cpp:158] Setting up relu3_4
I1106 22:53:49.993016  6103 net.cpp:165] Top shape: 10 256 56 56 (8028160)
I1106 22:53:49.993027  6103 layer_factory.hpp:74] Creating layer pool3
I1106 22:53:49.993038  6103 net.cpp:94] Creating Layer pool3
I1106 22:53:49.993043  6103 net.cpp:457] pool3 <- conv3_4
I1106 22:53:49.993051  6103 net.cpp:125] This layer is inheriting previous layer's sync mode: 1
I1106 22:53:49.993057  6103 net.cpp:413] pool3 -> pool3
I1106 22:53:49.993065  6103 net.cpp:158] Setting up pool3
I1106 22:53:49.993221  6103 net.cpp:165] Top shape: 10 256 28 28 (2007040)
I1106 22:53:49.993229  6103 layer_factory.hpp:74] Creating layer conv4_1
I1106 22:53:49.993239  6103 net.cpp:94] Creating Layer conv4_1
I1106 22:53:49.993244  6103 net.cpp:457] conv4_1 <- pool3
I1106 22:53:49.993250  6103 net.cpp:125] This layer is inheriting previous layer's sync mode: 1
I1106 22:53:49.993258  6103 net.cpp:413] conv4_1 -> conv4_1
I1106 22:53:49.993268  6103 net.cpp:158] Setting up conv4_1
I1106 22:53:50.021124  6103 net.cpp:165] Top shape: 10 512 28 28 (4014080)
I1106 22:53:50.021149  6103 layer_factory.hpp:74] Creating layer relu4_1
I1106 22:53:50.021158  6103 net.cpp:94] Creating Layer relu4_1
I1106 22:53:50.021163  6103 net.cpp:457] relu4_1 <- conv4_1
I1106 22:53:50.021169  6103 net.cpp:125] This layer is inheriting previous layer's sync mode: 1
I1106 22:53:50.021173  6103 net.cpp:402] relu4_1 -> conv4_1 (in-place)
I1106 22:53:50.021179  6103 net.cpp:158] Setting up relu4_1
I1106 22:53:50.021304  6103 net.cpp:165] Top shape: 10 512 28 28 (4014080)
I1106 22:53:50.021312  6103 layer_factory.hpp:74] Creating layer conv4_2
I1106 22:53:50.021320  6103 net.cpp:94] Creating Layer conv4_2
I1106 22:53:50.021323  6103 net.cpp:457] conv4_2 <- conv4_1
I1106 22:53:50.021328  6103 net.cpp:125] This layer is inheriting previous layer's sync mode: 1
I1106 22:53:50.021333  6103 net.cpp:413] conv4_2 -> conv4_2
I1106 22:53:50.021340  6103 net.cpp:158] Setting up conv4_2
I1106 22:53:50.072598  6103 net.cpp:165] Top shape: 10 512 28 28 (4014080)
I1106 22:53:50.072623  6103 layer_factory.hpp:74] Creating layer relu4_2
I1106 22:53:50.072633  6103 net.cpp:94] Creating Layer relu4_2
I1106 22:53:50.072638  6103 net.cpp:457] relu4_2 <- conv4_2
I1106 22:53:50.072644  6103 net.cpp:125] This layer is inheriting previous layer's sync mode: 1
I1106 22:53:50.072649  6103 net.cpp:402] relu4_2 -> conv4_2 (in-place)
I1106 22:53:50.072654  6103 net.cpp:158] Setting up relu4_2
I1106 22:53:50.072897  6103 net.cpp:165] Top shape: 10 512 28 28 (4014080)
I1106 22:53:50.072907  6103 layer_factory.hpp:74] Creating layer conv4_3
I1106 22:53:50.072916  6103 net.cpp:94] Creating Layer conv4_3
I1106 22:53:50.072919  6103 net.cpp:457] conv4_3 <- conv4_2
I1106 22:53:50.072924  6103 net.cpp:125] This layer is inheriting previous layer's sync mode: 1
I1106 22:53:50.072942  6103 net.cpp:413] conv4_3 -> conv4_3
I1106 22:53:50.072950  6103 net.cpp:158] Setting up conv4_3
I1106 22:53:50.119894  6103 net.cpp:165] Top shape: 10 512 28 28 (4014080)
I1106 22:53:50.119916  6103 layer_factory.hpp:74] Creating layer relu4_3
I1106 22:53:50.119925  6103 net.cpp:94] Creating Layer relu4_3
I1106 22:53:50.119930  6103 net.cpp:457] relu4_3 <- conv4_3
I1106 22:53:50.119936  6103 net.cpp:125] This layer is inheriting previous layer's sync mode: 1
I1106 22:53:50.119941  6103 net.cpp:402] relu4_3 -> conv4_3 (in-place)
I1106 22:53:50.119947  6103 net.cpp:158] Setting up relu4_3
I1106 22:53:50.120076  6103 net.cpp:165] Top shape: 10 512 28 28 (4014080)
I1106 22:53:50.120085  6103 layer_factory.hpp:74] Creating layer conv4_4
I1106 22:53:50.120092  6103 net.cpp:94] Creating Layer conv4_4
I1106 22:53:50.120096  6103 net.cpp:457] conv4_4 <- conv4_3
I1106 22:53:50.120100  6103 net.cpp:125] This layer is inheriting previous layer's sync mode: 1
I1106 22:53:50.120106  6103 net.cpp:413] conv4_4 -> conv4_4
I1106 22:53:50.120116  6103 net.cpp:158] Setting up conv4_4
I1106 22:53:50.167107  6103 net.cpp:165] Top shape: 10 512 28 28 (4014080)
I1106 22:53:50.167131  6103 layer_factory.hpp:74] Creating layer relu4_4
I1106 22:53:50.167140  6103 net.cpp:94] Creating Layer relu4_4
I1106 22:53:50.167145  6103 net.cpp:457] relu4_4 <- conv4_4
I1106 22:53:50.167150  6103 net.cpp:125] This layer is inheriting previous layer's sync mode: 1
I1106 22:53:50.167155  6103 net.cpp:402] relu4_4 -> conv4_4 (in-place)
I1106 22:53:50.167160  6103 net.cpp:158] Setting up relu4_4
I1106 22:53:50.167279  6103 net.cpp:165] Top shape: 10 512 28 28 (4014080)
I1106 22:53:50.167284  6103 layer_factory.hpp:74] Creating layer pool4
I1106 22:53:50.167291  6103 net.cpp:94] Creating Layer pool4
I1106 22:53:50.167294  6103 net.cpp:457] pool4 <- conv4_4
I1106 22:53:50.167299  6103 net.cpp:125] This layer is inheriting previous layer's sync mode: 1
I1106 22:53:50.167302  6103 net.cpp:413] pool4 -> pool4
I1106 22:53:50.167307  6103 net.cpp:158] Setting up pool4
I1106 22:53:50.167510  6103 net.cpp:165] Top shape: 10 512 14 14 (1003520)
I1106 22:53:50.167518  6103 layer_factory.hpp:74] Creating layer conv5_1
I1106 22:53:50.167526  6103 net.cpp:94] Creating Layer conv5_1
I1106 22:53:50.167528  6103 net.cpp:457] conv5_1 <- pool4
I1106 22:53:50.167532  6103 net.cpp:125] This layer is inheriting previous layer's sync mode: 1
I1106 22:53:50.167538  6103 net.cpp:413] conv5_1 -> conv5_1
I1106 22:53:50.167544  6103 net.cpp:158] Setting up conv5_1
I1106 22:53:50.214143  6103 net.cpp:165] Top shape: 10 512 14 14 (1003520)
I1106 22:53:50.214164  6103 layer_factory.hpp:74] Creating layer relu5_1
I1106 22:53:50.214172  6103 net.cpp:94] Creating Layer relu5_1
I1106 22:53:50.214177  6103 net.cpp:457] relu5_1 <- conv5_1
I1106 22:53:50.214184  6103 net.cpp:125] This layer is inheriting previous layer's sync mode: 1
I1106 22:53:50.214187  6103 net.cpp:402] relu5_1 -> conv5_1 (in-place)
I1106 22:53:50.214193  6103 net.cpp:158] Setting up relu5_1
I1106 22:53:50.214309  6103 net.cpp:165] Top shape: 10 512 14 14 (1003520)
I1106 22:53:50.214316  6103 layer_factory.hpp:74] Creating layer conv5_2
I1106 22:53:50.214326  6103 net.cpp:94] Creating Layer conv5_2
I1106 22:53:50.214329  6103 net.cpp:457] conv5_2 <- conv5_1
I1106 22:53:50.214334  6103 net.cpp:125] This layer is inheriting previous layer's sync mode: 1
I1106 22:53:50.214339  6103 net.cpp:413] conv5_2 -> conv5_2
I1106 22:53:50.214345  6103 net.cpp:158] Setting up conv5_2
I1106 22:53:50.260407  6103 net.cpp:165] Top shape: 10 512 14 14 (1003520)
I1106 22:53:50.260428  6103 layer_factory.hpp:74] Creating layer relu5_2
I1106 22:53:50.260440  6103 net.cpp:94] Creating Layer relu5_2
I1106 22:53:50.260445  6103 net.cpp:457] relu5_2 <- conv5_2
I1106 22:53:50.260452  6103 net.cpp:125] This layer is inheriting previous layer's sync mode: 1
I1106 22:53:50.260455  6103 net.cpp:402] relu5_2 -> conv5_2 (in-place)
I1106 22:53:50.260460  6103 net.cpp:158] Setting up relu5_2
I1106 22:53:50.260689  6103 net.cpp:165] Top shape: 10 512 14 14 (1003520)
I1106 22:53:50.260697  6103 layer_factory.hpp:74] Creating layer conv5_3
I1106 22:53:50.260705  6103 net.cpp:94] Creating Layer conv5_3
I1106 22:53:50.260709  6103 net.cpp:457] conv5_3 <- conv5_2
I1106 22:53:50.260712  6103 net.cpp:125] This layer is inheriting previous layer's sync mode: 1
I1106 22:53:50.260717  6103 net.cpp:413] conv5_3 -> conv5_3
I1106 22:53:50.260723  6103 net.cpp:158] Setting up conv5_3
I1106 22:53:50.307457  6103 net.cpp:165] Top shape: 10 512 14 14 (1003520)
I1106 22:53:50.307477  6103 layer_factory.hpp:74] Creating layer relu5_3
I1106 22:53:50.307487  6103 net.cpp:94] Creating Layer relu5_3
I1106 22:53:50.307492  6103 net.cpp:457] relu5_3 <- conv5_3
I1106 22:53:50.307497  6103 net.cpp:125] This layer is inheriting previous layer's sync mode: 1
I1106 22:53:50.307502  6103 net.cpp:402] relu5_3 -> conv5_3 (in-place)
I1106 22:53:50.307507  6103 net.cpp:158] Setting up relu5_3
I1106 22:53:50.307710  6103 net.cpp:165] Top shape: 10 512 14 14 (1003520)
I1106 22:53:50.307719  6103 layer_factory.hpp:74] Creating layer conv5_4
I1106 22:53:50.307728  6103 net.cpp:94] Creating Layer conv5_4
I1106 22:53:50.307730  6103 net.cpp:457] conv5_4 <- conv5_3
I1106 22:53:50.307734  6103 net.cpp:125] This layer is inheriting previous layer's sync mode: 1
I1106 22:53:50.307739  6103 net.cpp:413] conv5_4 -> conv5_4
I1106 22:53:50.307745  6103 net.cpp:158] Setting up conv5_4
I1106 22:53:50.354279  6103 net.cpp:165] Top shape: 10 512 14 14 (1003520)
I1106 22:53:50.354300  6103 layer_factory.hpp:74] Creating layer relu5_4
I1106 22:53:50.354310  6103 net.cpp:94] Creating Layer relu5_4
I1106 22:53:50.354315  6103 net.cpp:457] relu5_4 <- conv5_4
I1106 22:53:50.354320  6103 net.cpp:125] This layer is inheriting previous layer's sync mode: 1
I1106 22:53:50.354326  6103 net.cpp:402] relu5_4 -> conv5_4 (in-place)
I1106 22:53:50.354331  6103 net.cpp:158] Setting up relu5_4
I1106 22:53:50.354447  6103 net.cpp:165] Top shape: 10 512 14 14 (1003520)
I1106 22:53:50.354454  6103 layer_factory.hpp:74] Creating layer conv5_4_relu5_4_0_split
I1106 22:53:50.354460  6103 net.cpp:94] Creating Layer conv5_4_relu5_4_0_split
I1106 22:53:50.354465  6103 net.cpp:457] conv5_4_relu5_4_0_split <- conv5_4
I1106 22:53:50.354468  6103 net.cpp:125] This layer is inheriting previous layer's sync mode: 1
I1106 22:53:50.354472  6103 net.cpp:413] conv5_4_relu5_4_0_split -> conv5_4_relu5_4_0_split_0
I1106 22:53:50.354478  6103 net.cpp:413] conv5_4_relu5_4_0_split -> conv5_4_relu5_4_0_split_1
I1106 22:53:50.354486  6103 net.cpp:413] conv5_4_relu5_4_0_split -> conv5_4_relu5_4_0_split_2
I1106 22:53:50.354491  6103 net.cpp:413] conv5_4_relu5_4_0_split -> conv5_4_relu5_4_0_split_3
I1106 22:53:50.354496  6103 net.cpp:158] Setting up conv5_4_relu5_4_0_split
I1106 22:53:50.354502  6103 net.cpp:165] Top shape: 10 512 14 14 (1003520)
I1106 22:53:50.354506  6103 net.cpp:165] Top shape: 10 512 14 14 (1003520)
I1106 22:53:50.354509  6103 net.cpp:165] Top shape: 10 512 14 14 (1003520)
I1106 22:53:50.354513  6103 net.cpp:165] Top shape: 10 512 14 14 (1003520)
I1106 22:53:50.354516  6103 layer_factory.hpp:74] Creating layer pool5_spm5
I1106 22:53:50.354522  6103 net.cpp:94] Creating Layer pool5_spm5
I1106 22:53:50.354526  6103 net.cpp:457] pool5_spm5 <- conv5_4_relu5_4_0_split_0
I1106 22:53:50.354531  6103 net.cpp:125] This layer is inheriting previous layer's sync mode: 1
I1106 22:53:50.354534  6103 net.cpp:413] pool5_spm5 -> pool5_spm5
I1106 22:53:50.354539  6103 net.cpp:158] Setting up pool5_spm5
I1106 22:53:50.354750  6103 net.cpp:165] Top shape: 10 512 2 2 (20480)
I1106 22:53:50.354758  6103 layer_factory.hpp:74] Creating layer pool5_spm5_flatten
I1106 22:53:50.354765  6103 net.cpp:94] Creating Layer pool5_spm5_flatten
I1106 22:53:50.354768  6103 net.cpp:457] pool5_spm5_flatten <- pool5_spm5
I1106 22:53:50.354773  6103 net.cpp:125] This layer is inheriting previous layer's sync mode: 1
I1106 22:53:50.354776  6103 net.cpp:413] pool5_spm5_flatten -> pool5_spm5_flatten
I1106 22:53:50.354792  6103 net.cpp:158] Setting up pool5_spm5_flatten
I1106 22:53:50.354799  6103 net.cpp:165] Top shape: 10 2048 (20480)
I1106 22:53:50.354802  6103 layer_factory.hpp:74] Creating layer pool5_spm3
I1106 22:53:50.354809  6103 net.cpp:94] Creating Layer pool5_spm3
I1106 22:53:50.354815  6103 net.cpp:457] pool5_spm3 <- conv5_4_relu5_4_0_split_1
I1106 22:53:50.354817  6103 net.cpp:125] This layer is inheriting previous layer's sync mode: 1
I1106 22:53:50.354821  6103 net.cpp:413] pool5_spm3 -> pool5_spm3
I1106 22:53:50.354826  6103 net.cpp:158] Setting up pool5_spm3
I1106 22:53:50.354944  6103 net.cpp:165] Top shape: 10 512 5 5 (128000)
I1106 22:53:50.354950  6103 layer_factory.hpp:74] Creating layer pool5_spm3_flatten
I1106 22:53:50.354955  6103 net.cpp:94] Creating Layer pool5_spm3_flatten
I1106 22:53:50.354959  6103 net.cpp:457] pool5_spm3_flatten <- pool5_spm3
I1106 22:53:50.354962  6103 net.cpp:125] This layer is inheriting previous layer's sync mode: 1
I1106 22:53:50.354966  6103 net.cpp:413] pool5_spm3_flatten -> pool5_spm3_flatten
I1106 22:53:50.354971  6103 net.cpp:158] Setting up pool5_spm3_flatten
I1106 22:53:50.354976  6103 net.cpp:165] Top shape: 10 12800 (128000)
I1106 22:53:50.354979  6103 layer_factory.hpp:74] Creating layer pool5_spm2
I1106 22:53:50.354984  6103 net.cpp:94] Creating Layer pool5_spm2
I1106 22:53:50.354987  6103 net.cpp:457] pool5_spm2 <- conv5_4_relu5_4_0_split_2
I1106 22:53:50.354991  6103 net.cpp:125] This layer is inheriting previous layer's sync mode: 1
I1106 22:53:50.354995  6103 net.cpp:413] pool5_spm2 -> pool5_spm2
I1106 22:53:50.355000  6103 net.cpp:158] Setting up pool5_spm2
I1106 22:53:50.355212  6103 net.cpp:165] Top shape: 10 512 3 3 (46080)
I1106 22:53:50.355221  6103 layer_factory.hpp:74] Creating layer pool5_spm2_flatten
I1106 22:53:50.355226  6103 net.cpp:94] Creating Layer pool5_spm2_flatten
I1106 22:53:50.355228  6103 net.cpp:457] pool5_spm2_flatten <- pool5_spm2
I1106 22:53:50.355232  6103 net.cpp:125] This layer is inheriting previous layer's sync mode: 1
I1106 22:53:50.355237  6103 net.cpp:413] pool5_spm2_flatten -> pool5_spm2_flatten
I1106 22:53:50.355242  6103 net.cpp:158] Setting up pool5_spm2_flatten
I1106 22:53:50.355247  6103 net.cpp:165] Top shape: 10 4608 (46080)
I1106 22:53:50.355249  6103 layer_factory.hpp:74] Creating layer pool5_spm1
I1106 22:53:50.355254  6103 net.cpp:94] Creating Layer pool5_spm1
I1106 22:53:50.355257  6103 net.cpp:457] pool5_spm1 <- conv5_4_relu5_4_0_split_3
I1106 22:53:50.355262  6103 net.cpp:125] This layer is inheriting previous layer's sync mode: 1
I1106 22:53:50.355267  6103 net.cpp:413] pool5_spm1 -> pool5_spm1
I1106 22:53:50.355275  6103 net.cpp:158] Setting up pool5_spm1
I1106 22:53:50.355394  6103 net.cpp:165] Top shape: 10 512 1 1 (5120)
I1106 22:53:50.355401  6103 layer_factory.hpp:74] Creating layer pool5_spm1_flatten
I1106 22:53:50.355406  6103 net.cpp:94] Creating Layer pool5_spm1_flatten
I1106 22:53:50.355409  6103 net.cpp:457] pool5_spm1_flatten <- pool5_spm1
I1106 22:53:50.355413  6103 net.cpp:125] This layer is inheriting previous layer's sync mode: 1
I1106 22:53:50.355417  6103 net.cpp:413] pool5_spm1_flatten -> pool5_spm1_flatten
I1106 22:53:50.355422  6103 net.cpp:158] Setting up pool5_spm1_flatten
I1106 22:53:50.355427  6103 net.cpp:165] Top shape: 10 512 (5120)
I1106 22:53:50.355430  6103 layer_factory.hpp:74] Creating layer pool5_spm
I1106 22:53:50.355437  6103 net.cpp:94] Creating Layer pool5_spm
I1106 22:53:50.355442  6103 net.cpp:457] pool5_spm <- pool5_spm1_flatten
I1106 22:53:50.355445  6103 net.cpp:457] pool5_spm <- pool5_spm2_flatten
I1106 22:53:50.355448  6103 net.cpp:457] pool5_spm <- pool5_spm3_flatten
I1106 22:53:50.355453  6103 net.cpp:457] pool5_spm <- pool5_spm5_flatten
I1106 22:53:50.355455  6103 net.cpp:125] This layer is inheriting previous layer's sync mode: 1
I1106 22:53:50.355459  6103 net.cpp:413] pool5_spm -> pool5_spm
I1106 22:53:50.355464  6103 net.cpp:158] Setting up pool5_spm
I1106 22:53:50.355470  6103 net.cpp:165] Top shape: 10 19968 (199680)
I1106 22:53:50.355473  6103 layer_factory.hpp:74] Creating layer pool5_gather
I1106 22:53:50.355487  6103 net.cpp:94] Creating Layer pool5_gather
I1106 22:53:50.355491  6103 net.cpp:457] pool5_gather <- pool5_spm
I1106 22:53:50.355495  6103 net.cpp:457] pool5_gather <- label_gather
I1106 22:53:50.355500  6103 net.cpp:413] pool5_gather -> pool5_spm_gather
I1106 22:53:50.355506  6103 net.cpp:413] pool5_gather -> label
I1106 22:53:50.355511  6103 net.cpp:158] Setting up pool5_gather
I1106 22:53:50.355518  6103 net.cpp:165] Top shape: 10 19968 (199680)
I1106 22:53:50.355523  6103 net.cpp:165] Top shape: 10 (10)
I1106 22:53:50.355526  6103 layer_factory.hpp:74] Creating layer label_pool5_gather_1_split
I1106 22:53:50.355531  6103 net.cpp:94] Creating Layer label_pool5_gather_1_split
I1106 22:53:50.355537  6103 net.cpp:457] label_pool5_gather_1_split <- label
I1106 22:53:50.355543  6103 net.cpp:125] This layer is inheriting previous layer's sync mode: 0
I1106 22:53:50.355550  6103 net.cpp:413] label_pool5_gather_1_split -> label_pool5_gather_1_split_0
I1106 22:53:50.355556  6103 net.cpp:413] label_pool5_gather_1_split -> label_pool5_gather_1_split_1
I1106 22:53:50.355564  6103 net.cpp:413] label_pool5_gather_1_split -> label_pool5_gather_1_split_2
I1106 22:53:50.355572  6103 net.cpp:158] Setting up label_pool5_gather_1_split
I1106 22:53:50.355581  6103 net.cpp:165] Top shape: 10 (10)
I1106 22:53:50.355587  6103 net.cpp:165] Top shape: 10 (10)
I1106 22:53:50.355593  6103 net.cpp:165] Top shape: 10 (10)
I1106 22:53:50.355598  6103 layer_factory.hpp:74] Creating layer fc6-spp
I1106 22:53:50.355605  6103 net.cpp:94] Creating Layer fc6-spp
I1106 22:53:50.355608  6103 net.cpp:457] fc6-spp <- pool5_spm_gather
I1106 22:53:50.355612  6103 net.cpp:125] This layer is inheriting previous layer's sync mode: 0
I1106 22:53:50.355618  6103 net.cpp:413] fc6-spp -> fc6
I1106 22:53:50.355624  6103 net.cpp:158] Setting up fc6-spp
I1106 22:53:52.155880  6103 net.cpp:165] Top shape: 10 4096 (40960)
I1106 22:53:52.155910  6103 layer_factory.hpp:74] Creating layer relu6
I1106 22:53:52.155921  6103 net.cpp:94] Creating Layer relu6
I1106 22:53:52.155927  6103 net.cpp:457] relu6 <- fc6
I1106 22:53:52.155933  6103 net.cpp:125] This layer is inheriting previous layer's sync mode: 0
I1106 22:53:52.155938  6103 net.cpp:402] relu6 -> fc6 (in-place)
I1106 22:53:52.155946  6103 net.cpp:158] Setting up relu6
I1106 22:53:52.156328  6103 net.cpp:165] Top shape: 10 4096 (40960)
I1106 22:53:52.156339  6103 layer_factory.hpp:74] Creating layer drop6
I1106 22:53:52.156348  6103 net.cpp:94] Creating Layer drop6
I1106 22:53:52.156352  6103 net.cpp:457] drop6 <- fc6
I1106 22:53:52.156358  6103 net.cpp:125] This layer is inheriting previous layer's sync mode: 0
I1106 22:53:52.156363  6103 net.cpp:402] drop6 -> fc6 (in-place)
I1106 22:53:52.156368  6103 net.cpp:158] Setting up drop6
I1106 22:53:52.156374  6103 net.cpp:165] Top shape: 10 4096 (40960)
I1106 22:53:52.156378  6103 layer_factory.hpp:74] Creating layer fc7-spp
I1106 22:53:52.156386  6103 net.cpp:94] Creating Layer fc7-spp
I1106 22:53:52.156389  6103 net.cpp:457] fc7-spp <- fc6
I1106 22:53:52.156394  6103 net.cpp:125] This layer is inheriting previous layer's sync mode: 0
I1106 22:53:52.156399  6103 net.cpp:413] fc7-spp -> fc7
I1106 22:53:52.156404  6103 net.cpp:158] Setting up fc7-spp
I1106 22:53:52.481190  6103 net.cpp:165] Top shape: 10 4096 (40960)
I1106 22:53:52.481379  6103 layer_factory.hpp:74] Creating layer relu7
I1106 22:53:52.481390  6103 net.cpp:94] Creating Layer relu7
I1106 22:53:52.481396  6103 net.cpp:457] relu7 <- fc7
I1106 22:53:52.481401  6103 net.cpp:125] This layer is inheriting previous layer's sync mode: 0
I1106 22:53:52.481405  6103 net.cpp:402] relu7 -> fc7 (in-place)
I1106 22:53:52.481411  6103 net.cpp:158] Setting up relu7
I1106 22:53:52.481788  6103 net.cpp:165] Top shape: 10 4096 (40960)
I1106 22:53:52.481797  6103 layer_factory.hpp:74] Creating layer drop7
I1106 22:53:52.481804  6103 net.cpp:94] Creating Layer drop7
I1106 22:53:52.481808  6103 net.cpp:457] drop7 <- fc7
I1106 22:53:52.481812  6103 net.cpp:125] This layer is inheriting previous layer's sync mode: 0
I1106 22:53:52.481817  6103 net.cpp:402] drop7 -> fc7 (in-place)
I1106 22:53:52.481822  6103 net.cpp:158] Setting up drop7
I1106 22:53:52.481827  6103 net.cpp:165] Top shape: 10 4096 (40960)
I1106 22:53:52.481830  6103 layer_factory.hpp:74] Creating layer fc8-spp_ft
I1106 22:53:52.481837  6103 net.cpp:94] Creating Layer fc8-spp_ft
I1106 22:53:52.481842  6103 net.cpp:457] fc8-spp_ft <- fc7
I1106 22:53:52.481847  6103 net.cpp:125] This layer is inheriting previous layer's sync mode: 0
I1106 22:53:52.481850  6103 net.cpp:413] fc8-spp_ft -> fc8_ft
I1106 22:53:52.481858  6103 net.cpp:158] Setting up fc8-spp_ft
I1106 22:53:52.562327  6103 net.cpp:165] Top shape: 10 1001 (10010)
I1106 22:53:52.562350  6103 layer_factory.hpp:74] Creating layer fc8_ft_fc8-spp_ft_0_split
I1106 22:53:52.562362  6103 net.cpp:94] Creating Layer fc8_ft_fc8-spp_ft_0_split
I1106 22:53:52.562368  6103 net.cpp:457] fc8_ft_fc8-spp_ft_0_split <- fc8_ft
I1106 22:53:52.562374  6103 net.cpp:125] This layer is inheriting previous layer's sync mode: 0
I1106 22:53:52.562379  6103 net.cpp:413] fc8_ft_fc8-spp_ft_0_split -> fc8_ft_fc8-spp_ft_0_split_0
I1106 22:53:52.562388  6103 net.cpp:413] fc8_ft_fc8-spp_ft_0_split -> fc8_ft_fc8-spp_ft_0_split_1
I1106 22:53:52.562394  6103 net.cpp:413] fc8_ft_fc8-spp_ft_0_split -> fc8_ft_fc8-spp_ft_0_split_2
I1106 22:53:52.562398  6103 net.cpp:158] Setting up fc8_ft_fc8-spp_ft_0_split
I1106 22:53:52.562405  6103 net.cpp:165] Top shape: 10 1001 (10010)
I1106 22:53:52.562409  6103 net.cpp:165] Top shape: 10 1001 (10010)
I1106 22:53:52.562413  6103 net.cpp:165] Top shape: 10 1001 (10010)
I1106 22:53:52.562417  6103 layer_factory.hpp:74] Creating layer loss
I1106 22:53:52.562423  6103 net.cpp:94] Creating Layer loss
I1106 22:53:52.562427  6103 net.cpp:457] loss <- fc8_ft_fc8-spp_ft_0_split_0
I1106 22:53:52.562432  6103 net.cpp:457] loss <- label_pool5_gather_1_split_0
I1106 22:53:52.562435  6103 net.cpp:125] This layer is inheriting previous layer's sync mode: 0
I1106 22:53:52.562439  6103 net.cpp:413] loss -> loss
…
